pred_yield/model/yield_model_classifier.pt (torch, 326959 bytes, 18 tensors)

FC1.0.weight f4 [128, 192]
000000 9f da 89 3d 98 69 3f bd 6f 5f cf 3c ac ac 56 be
       0.06731152 -0.04673156 0.025314061 -0.20964307
000010 3e a3 38 bb c2 26 a0 3d ff d8 1c 3d 02 c7 fa bd
       -0.0028173472 0.078198925 0.03829288 -0.12244989
000020 e7 78 a8 bb ad a1 e1 3d 8c a5 3d 3d ff d3 dc bd
       -0.005141366 0.11017165 0.046300456 -0.107826225
000030 b7 cc 85 3d f7 10 8a bc c8 c5 80 39 fd f5 5d 3d
       0.06533187 -0.016853793 0.0002456142 0.05418967
000040 0b 33 4d 3d 11 f4 47 3e 33 8a b7 bd d1 b7 36 bd
       0.050097506 0.19526698 -0.08961906 -0.044608895
000050 33 85 45 3d 41 68 e3 bd 05 be 92 bd b1 e0 e2 bd
       0.04822273 -0.11103869 -0.071651496 -0.11078013
000060 b6 28 c3 3b a5 01 e5 bd cc ef 5d 3c 83 94 43 bd
       0.005955781 -0.11181954 0.013545942 -0.047749054
000070 03 f4 63 bd 16 56 cb 3d e7 ac c8 ba c8 ad 48 3d
       -0.05565263 0.09928529 -0.0015310318 0.048993856
000080 62 c8 b4 3d 15 b9 34 3d 5c 07 ec 3c 1f 54 2b 3a
       0.088272825 0.04412182 0.028812103 0.00065356673
000090 56 76 82 bd 47 d0 b4 bd e7 9a d5 3d f9 ef 61 bc
       -0.06370227 -0.08828788 0.10429936 -0.013790124
0000a0 85 ec 5b 3d ff 6f 8f b9 0c c5 0b 3e ce cd 73 bc
       0.05369236 -0.0002735853 0.13649386 -0.014880611
0000b0 a2 1d 75 bd 0c 70 98 bc 5e 2d 88 3d db 71 e5 3c
       -0.059842713 -0.018608116 0.06649278 0.028008392
0000c0 e3 92 1d be 4c 53 a1 3d 85 e2 f7 3d dc 5f 91 3d
       -0.15388064 0.07877216 0.12103752 0.07098362
0000d0 75 d1 8e 3d e3 44 b8 3d 00 0e 5b 3d e1 cf 5d 3d
       0.069735445 0.08997514 0.05348015 0.054153327
0000e0 6f 7f c8 3d 3f c0 79 3d fd b2 8b bc d8 ae 56 bd
       0.09789931 0.060974356 -0.017053122 -0.052412838
0000f0 e9 93 e1 3d f9 4f b0 bd eb 0b e7 3c b9 9a 65 bd
       0.1101454 -0.086090036 0.028203925 -0.05605576
000100 8b f0 a7 3d b1 7d 10 3c 8b 6d 33 3e 55 0e 19 3d
       0.08200177 0.00881903 0.17522256 0.037367184
000110 1e 9d eb bb 50 46 fd bd 1c bf 58 3d c8 f9 f8 3c
       -0.0071903607 -0.12366927 0.05291663 0.030392542
000120 17 a6 1f 3e 00 67 78 3d d1 7f 9b 3d 9f 92 66 3c
       0.15590702 0.060645103 0.075927384 0.014073043
000130 34 e0 a9 3c c4 b9 15 be 45 87 05 be 62 9f 59 bd
       0.020736791 -0.14621645 -0.13039882 -0.053130515
000140 17 cd 7d 3d 13 07 83 3b 2e bd c3 3d 43 50 e9 3d
       0.061963167 0.003998646 0.095575675 0.11392262
000150 cc 12 84 bd 03 3f 4f bd 42 fd 98 bc 39 ff 4d be
       -0.06448898 -0.050597202 -0.01867545 -0.20116891
000160 e4 df 92 3b 26 2a 5b bd 09 6c 1c 3e 9c d3 c1 bd
       0.0044822562 -0.053506993 0.15275587 -0.094641894
000170 a0 64 ab 3c 19 56 97 bb 31 c9 6f 3e eb 5e e3 bb
       0.020922005 -0.004618418 0.23416592 -0.0069388053
000180 1a 33 b2 3d 54 3d 8f bd 52 b0 0c bd 43 6c eb 3d
       0.08701153 -0.06994119 -0.03434784 0.11495259
000190 0f 14 00 3d ce f0 ab 3d 29 f9 dc 3d be c0 73 3d
       0.03126913 0.08395539 0.10789711 0.059509985
0001a0 30 48 bc bc 92 9f 65 3c 41 12 37 bd e3 26 f6 3d
       -0.02298364 0.014015095 -0.044695143 0.12019136
0001b0 17 c8 4c bd 35 73 bb ba c3 89 78 bc f4 b1 36 bd
       -0.049995508 -0.0014301302 -0.015169564 -0.044603303
0001c0 9a f2 35 be 1c 8e 02 3e 6f bb e2 3c 24 90 10 be
       -0.17768326 0.12749523 0.027677266 -0.14117485
0001d0 d1 bc 04 bc 55 58 3e 3d 73 63 0e be 5c 0a 43 be
       -0.008101658 0.04647096 -0.13905124 -0.1904692
0001e0 4a ff 89 3b 80 a4 d1 3d dd 3f 4b 3d 3d 8e 9d bb
       0.004211341 0.10236454 0.04962145 -0.004808216
0001f0 f4 b4 30 3c 59 69 b6 bd e6 af e8 3d 8b a8 47 bd
       0.01078533 -0.08906812 0.11361675 -0.04874472
000200 8a bb 91 3c a5 e0 07 be 9b 13 da bd 47 c8 5b bd
       0.01778962 -0.13269289 -0.10648271 -0.053657796
000210 6a 8a 08 3e 0e e1 d3 bc 41 6b 62 3c 9c 19 ba 3b
       0.13334051 -0.02586415 0.013819517 0.0056793224
000220 05 ac a3 bd fd 02 40 bd 95 f4 77 3e d9 d8 e8 bc
       -0.079917945 -0.04687785 0.24214394 -0.028423714
000230 dc 82 26 bd 12 3c b2 3d 0c 3e 1d bd 21 e1 7f 3c
       -0.04065214 0.08702864 -0.03838925 0.01561764
000240 87 54 5a 3d 57 6b 33 3d b4 a7 a8 bd 7a 28 01 3e
       0.053303268 0.04380354 -0.08235112 0.12613097
000250 d4 5b a4 bc 74 6d d9 3c e2 90 19 be 7e 18 33 3c
       -0.020063318 0.02654145 -0.14996675 0.010931132
000260 d0 60 04 3e 5f bb 01 3d 8d f3 84 3d 90 3d 00 bc
       0.12927556 0.03167283 0.06491766 -0.007827178
000270 88 7a f2 ba 66 c7 d5 bd 27 e5 03 3d ab 2a bd 3d
       -0.0018499652 -0.10438423 0.03220096 0.09236654
000280 f5 c5 df bd 49 02 01 3d 0b df 53 3d c0 49 26 bc
       -0.10926429 0.03149632 0.051726382 -0.010149419
000290 bd 53 e0 3d 9a 71 8b 3d 33 2b 99 bd 1b d8 a9 bd
       0.10953472 0.06808777 -0.07478943 -0.08293172
0002a0 da f7 06 3e 89 3c 29 be 42 b4 8c 3b 2d c1 2b 3c
       0.13180485 -0.16526999 0.0042939493 0.010483068
0002b0 9d dd 85 bd b9 ec 3f be 50 f6 f4 3d 05 64 f4 bd
       -0.0653641 -0.18742646 0.11961043 -0.1193314
0002c0 3a 1e ab 3c 22 b0 96 3d 73 a3 ed 3d 65 56 1e 3e
       0.020888437 0.073578134 0.11603441 0.15462644
0002d0 76 02 4a bd 97 07 2a 3d 3c 3d 46 3c 9f b4 85 3d
       -0.049318753 0.041511144 0.01209956 0.06528591
0002e0 34 4a 43 3d bc 5b 19 bc 6e 4c 44 3d 88 19 ae 3d
       0.047678187 -0.00936025 0.04792445 0.085009634
0002f0 b4 de 34 bc d2 05 7d bd c1 e5 47 bd e4 99 0e 3d
       -0.011039425 -0.06177313 -0.048803095 0.03481473
000300 1c 66 18 bd 10 5c 2a be a6 2f f9 3d 66 88 5b 3e
       -0.037206754 -0.16636682 0.12167291 0.2143875
000310 d3 72 eb bd 29 c2 51 bc 9e ac c1 bd 47 0d 58 bc
       -0.1149651 -0.012802639 -0.09456752 -0.013186759
000320 6a 68 b8 3d a5 a6 75 3c 19 26 ba bc 36 18 84 3d
       0.090042904 0.014993344 -0.022723245 0.0644993
000330 ad 9c 0e be 59 7d b6 bd 7f cf 7d bd bb da b6 3d
       -0.13926955 -0.08910627 -0.06196546 0.08928438
000340 e5 4d 01 3e a5 86 df bd 2e d2 ac bc 26 f8 7b be
       0.1262737 -0.10914353 -0.021096315 -0.2460638
000350 0e d0 d6 3c 1a fa 64 bd f0 3a 5a be 46 68 bd 3d
       0.026222255 -0.055902578 -0.21311545 0.09248404
000360 38 9e 8d bd 68 5a 3a 3e 57 7c 7a bd 34 ab 03 3e
       -0.069149435 0.1819855 -0.061153736 0.12858278
000370 bb 0c 99 3c 53 85 72 3c 1f 76 2d bd 08 ca e1 3c
       0.018682828 0.014802295 -0.042348977 0.027562156
000380 7b 7a 0d bd 60 65 0c 3d 44 17 2a be c9 96 99 bd
       -0.034540635 0.034276366 -0.16610438 -0.07499463
000390 e6 36 62 3e e6 c1 9e bd 49 e5 6d bc bc df bf 3c
       0.22091255 -0.07751827 -0.014519998 0.023422115
0003a0 ed da 06 be fb dd f9 3d 3c 01 01 3d 9d 8f 40 3d
       -0.13169451 0.122005425 0.031495318 0.04701196
0003b0 91 50 db 3c 56 5d e1 3d 4f 0e f9 bc 91 84 0f 3e
       0.026771815 0.110041305 -0.03040233 0.14015414
0003c0 e6 72 ad 3d 0e 21 99 3d 8e 0a 00 be 6b a2 4f bd
       0.08469181 0.07477008 -0.12504026 -0.050692003
0003d0 49 6e de 3c 19 12 fb bc 2c fb 69 3d 0a 72 19 bd
       0.027152197 -0.030648278 0.0571243 -0.03746227
0003e0 55 2a fe 3d 46 75 b2 3c cd a6 e2 3a aa 5e ca 3c
       0.12410418 0.021784436 0.0017292142 0.024703342
0003f0 ce 5a a9 3c 9a 9f 87 3d d6 9f d6 bd be f0 b0 bd
       0.020673182 0.066222385 -0.10479705 -0.08639668

FC1.0.bias f4 [128]
000000 72 1e c6 bd c9 0f 7c bd 6c 77 8a bd f4 38 55 bd
       -0.09673776 -0.06153849 -0.06761059 -0.052056268
000010 21 0a 63 3d b0 c7 26 bd ff 9c b3 bc e5 65 4e bd
       0.05542958 -0.04071778 -0.021925448 -0.050390143
000020 b5 5c e2 bd 02 6d 8e 3c c3 94 90 bd 23 d2 87 bd
       -0.11052839 0.017385963 -0.07059624 -0.06631877
000030 84 64 e9 bc 07 a0 c5 bd 67 fa ef bc 0c 01 b9 bd
       -0.028490312 -0.096496634 -0.029294206 -0.09033403
000040 69 47 da bc 17 55 1c be 1a be 32 bd 4f 6b ac bd
       -0.02664538 -0.15266834 -0.043638326 -0.08418905
000050 91 7a 9c 3b 65 d9 a7 bd 1f cd 10 3d 45 7b c8 bd
       0.0047753532 -0.081957616 0.03535187 -0.09789137
000060 f2 43 20 3c 7a e0 81 bd 96 cf e1 bd c6 ae 14 be
       0.009781824 -0.06341644 -0.11025922 -0.14519796
000070 9c 63 5f bd ff b9 c7 3b 5e 83 b3 bd d0 d8 84 bd
       -0.054538354 0.0060951705 -0.08765291 -0.06486666
000080 f0 74 2d be d9 54 ea bc bd 13 90 bd a1 6f 0e 3b
       -0.1693914 -0.028604912 -0.07035015 0.0021734016
000090 b6 f6 84 bc d7 5b 14 be 64 af fd bc 61 29 12 be
       -0.016230922 -0.14488159 -0.030967422 -0.14273597
0000a0 65 ec a8 bc 14 3a 13 be 96 97 1b bc ee 2e ca 3a
       -0.020620534 -0.14377624 -0.00949659 0.0015425363
0000b0 e2 88 18 bd 11 55 83 bd d0 9a 18 bd b9 4c f7 bd
       -0.037239917 -0.064127095 -0.037257016 -0.120751806
0000c0 b7 4c a5 bd b3 b5 7a bd 77 37 bc bd 4a f3 15 be
       -0.08071273 -0.061208438 -0.091902666 -0.14643589
0000d0 9e 74 dc bd 73 d5 59 bd 14 0d 57 bd 04 7e 83 bd
       -0.107644305 -0.053182077 -0.052502707 -0.0642052
0000e0 79 85 b2 bd 16 8a db bd 17 df 07 be 54 29 8d bd
       -0.08716864 -0.10719697 -0.13268696 -0.06892648
0000f0 ea d1 e2 bd 90 ec 97 bd b1 9d ad bc 33 e1 7c bd
       -0.11075194 -0.074181676 -0.021193357 -0.061738204
000100 5c 4e 2d bc 08 4d 2f bd 95 d5 22 bd 36 be 87 bd
       -0.010577764 -0.042798072 -0.03975447 -0.06628077
000110 d8 c5 dd bd 7d a3 7d bd b4 c0 d1 bd db f8 df bd
       -0.10828751 -0.061923493 -0.10241833 -0.10936137
000120 6b b6 2d be 8d 26 0e bd 18 1f 21 be e3 a7 e4 bd
       -0.16964118 -0.034704734 -0.15734518 -0.11164834
000130 c1 32 bc bd 00 be bb bd 60 a5 ab bd 28 71 17 be
       -0.09189368 -0.09167099 -0.08381152 -0.1478926
000140 df a5 1e bd f6 15 2e be 9a 0f 95 bd 87 ff 6f bc
       -0.038732406 -0.17000565 -0.072783664 -0.014648325
000150 87 23 df bd 52 39 2d be ec ff 1d 3c 6d 6c a8 bc
       -0.10895448 -0.16916397 0.009643536 -0.020559514
000160 c9 f9 03 be f8 6a 97 bc 26 ec 3b be be 2a 2d be
       -0.12888254 -0.018483624 -0.18351802 -0.16910836
000170 89 ea 9a bd c0 b1 fd bd 33 48 cd bd 59 57 ff bd
       -0.07564265 -0.12387419 -0.100235365 -0.12467832
000180 86 3f aa bd 11 b9 c8 bc 37 e8 22 3d 5c 49 bc bd
       -0.083128974 -0.024502309 0.03977224 -0.0919368
000190 e4 06 07 be f6 8b 0b be 1d 2c 9e bd d9 a0 f3 bd
       -0.13186222 -0.1362761 -0.07723258 -0.11895914
0001a0 b7 81 1b bd 2f ea 92 bd 82 f0 4f bd 7a 71 98 bd
       -0.037965503 -0.07173573 -0.050766475 -0.07443519
0001b0 11 62 c8 bd ba c7 7e bc bd 25 64 3c 2a d0 0e be
       -0.0978433 -0.015550548 0.013925013 -0.13946596
0001c0 49 d1 6c bc 27 e1 b1 bd 3f 77 da bd e0 58 d8 bd
       -0.014454194 -0.086855225 -0.10667276 -0.105638266
0001d0 5e 3a c7 bc 64 f4 d2 bd ed e3 ca bd 59 2b 6a bd
       -0.024319824 -0.1030052 -0.09906755 -0.057170246
0001e0 e8 3e 56 bd 24 8c 44 be 2d 44 95 3c b1 a3 bf bd
       -0.052306086 -0.19194084 0.018220985 -0.093573935
0001f0 ca 3b ab bd fe 3a a0 bd e7 1c 3a bc e7 c0 0e be
       -0.08361013 -0.07823752 -0.01135943 -0.13940774

FC2.0.weight f4 [16, 128]
000000 5c 06 9d 3e 68 73 20 3e 2a de b3 be 99 67 ca 3e
       0.30668914 0.15669024 -0.35130435 0.39532164
000010 1a 66 89 3e c9 30 07 be 1a 76 8e be 26 fe 77 be
       0.2683571 -0.13202204 -0.2782448 -0.24218044
000020 e4 f2 03 be c5 e5 ac be 72 67 b4 3d c9 1e b3 3e
       -0.12885624 -0.3376905 0.08808793 0.34984425
000030 45 d3 2c 3e a4 a6 5c bd e8 85 07 be d8 ad e7 bc
       0.16877468 -0.05386986 -0.13234675 -0.028281137
000040 81 1b 81 3e 6a 28 62 be 3e 4e 8e 3e 52 8f 33 be
       0.25216296 -0.22085729 0.2779407 -0.17535141
000050 9b a0 d1 bd 65 9a be 3d f0 7e cb 3e 58 7d 7f be
       -0.10235711 0.09306792 0.39745283 -0.24950159
000060 3f dc 80 3d 07 43 ea bd bd 84 7a be 58 bb 60 be
       0.062920086 -0.11438566 -0.24464698 -0.21946466
000070 44 21 9a be db 8f 38 3e c3 15 47 3e 96 db c8 bd
       -0.30103505 0.18023627 0.19441895 -0.09807508
000080 25 a8 0e bd 8d fc cb bd 3c 9c 9a be 2b b9 a8 bd
       -0.034828324 -0.099602796 -0.30197322 -0.08238443
000090 28 6d 5d 3e 67 6a 2a 3f 6a 85 d9 3d 8d 3c a7 be
       0.21623671 0.6656861 0.1062115 -0.32663384
0000a0 80 43 a8 3e 02 30 af 3e 76 e5 4e 3e a5 28 a1 3e
       0.32863998 0.34216315 0.2020472 0.31476322
0000b0 ae 4d 69 3e 33 6c c9 be 1e 77 13 3e 80 0a fd 3d
       0.22783539 -0.39340362 0.14400908 0.12355518
0000c0 8e 27 06 3f 38 92 97 3e 4a 64 bf 3e d9 17 38 be
       0.52404106 0.29603744 0.37381202 -0.17977847
0000d0 4f 8a 07 be de ec bc 3c 9c 63 23 3e ea d1 78 3e
       -0.13236354 0.023062166 0.15955967 0.24298826
0000e0 5d b2 bd bd 80 19 a0 be 22 24 b2 be 4f 69 c6 3e
       -0.09262536 -0.31269455 -0.34793192 0.3875222
0000f0 2b 14 be 3d eb 4d 32 be 71 7a 8b bd 96 5e a8 be
       0.092811905 -0.17412536 -0.06810463 -0.32884663
000100 80 3f 6c 3e a5 c6 af 3e d2 2f b2 3e 8e db 3b be
       0.23071098 0.3433124 0.3480211 -0.18345472
000110 7d dd 90 be 29 72 bf be 9a 2d a3 be 9f e4 ab 3e
       -0.28293982 -0.37391785 -0.3187073 0.33572862
000120 9e 1c 22 bd 5a 20 7e be 79 ea a6 be c7 84 3b 3e
       -0.039578073 -0.24817029 -0.32600763 0.1831237
000130 0d 62 0c 3e a0 e3 01 bf a0 bb 21 be 0a 6c 9c 3e
       0.13709278 -0.50737953 -0.1579423 0.30551177
000140 0e ae fc bd f3 2f aa 3e 26 30 f4 be 62 7b 97 be
       -0.12337886 0.33239707 -0.47692984 -0.2958632
000150 df c0 7a be ef 34 1b be b0 14 25 3e e7 f8 19 3e
       -0.24487637 -0.15156911 0.16121173 0.15036355
000160 67 d4 06 bc 17 da 17 3e 5a 66 85 bc 94 43 95 be
       -0.008229352 0.14829288 -0.016284157 -0.2915312
000170 ed e7 ee be 51 8a c9 3d e1 09 88 3e 5a 1a 95 3c
       -0.4666132 0.09840835 0.26570037 0.018201042
000180 49 58 7d 3e a9 cd 96 be ff 56 8e be 21 e6 97 be
       0.2474071 -0.2945378 -0.27800748 -0.29667762
000190 04 6d 49 be 07 61 ec be 02 3c 0c be c5 63 c2 be
       -0.19670492 -0.46167776 -0.13694766 -0.37966743
0001a0 09 61 1b be 2e 1b d3 3d 00 87 85 3e 98 bd d0 3e
       -0.15173735 0.103079185 0.2607956 0.4076965
0001b0 52 39 43 bb 53 60 2a 3e 82 f1 fd bd ba 90 8a be
       -0.0029788804 0.16638307 -0.123995796 -0.27063543
0001c0 6a 30 66 3e b7 2d ed 3e 37 15 bc bd 72 33 a8 3e
       0.22479406 0.4632394 -0.09183734 0.3285175
0001d0 7e 94 ab be a5 d7 2f 3d 01 b1 aa 3d 3e 8e 15 3e
       -0.33511728 0.042930264 0.08334542 0.14605042
0001e0 4a 1f 19 be f2 34 b5 3e 14 a2 40 3e 29 3b d4 bd
       -0.14953342 0.35391957 0.18811828 -0.103628464
0001f0 62 2f 95 3e d8 48 1b 3d b7 6a d8 3e 32 1f 8e 3d
       0.29137713 0.037911266 0.42268917 0.06939544
000200 7d ed 31 be e9 2d 09 be 0a 64 32 3e 3e d3 d6 be
       -0.17375751 -0.1339642 0.17420974 -0.4195804
000210 d1 fc 7d be 5c 29 50 3e ae 06 99 3e 58 df e7 3e
       -0.24803473 0.20328277 0.2988791 0.45287585
000220 5e dd 2e 3e 81 58 5e 3e b0 75 11 be 9c 29 b7 be
       0.17076632 0.21713449 -0.1420505 -0.35773933
000230 2f 96 04 be f7 24 c5 3d d7 a3 bc 3d 10 c7 bf 3c
       -0.12947915 0.09626191 0.092109375 0.02341035
000240 2d 3a 57 be 64 2a b2 3e bf 85 37 be ca c5 4f 3e
       -0.21018286 0.34797966 -0.17922114 0.20290294
000250 33 b2 78 3c 77 bc df 3a d8 dd 83 be 79 5e c2 3e
       0.015179205 0.0017069717 -0.2575519 0.37962702
000260 30 6b cb bd c9 da 19 3e bd 3d 2d 3e 89 20 2b 3d
       -0.09932554 0.15024866 0.16918083 0.041779075
000270 1b c7 8b 3e 28 a8 c4 bd 62 ce 03 be 41 9c 57 3e
       0.27300343 -0.09602386 -0.12871698 0.210557
000280 c9 88 ca 3c d8 f7 34 3e 7e ec 09 3e e9 05 36 3d
       0.024723427 0.1767267 0.13469121 0.04443923
000290 e5 d7 b3 bd 71 1a 2d bf 64 00 14 be 1b f3 76 3e
       -0.08781413 -0.6761847 -0.14453274 0.24116175
0002a0 a0 54 6c be b0 6b af be 95 0e 6d be 63 1e 29 be
       -0.23079157 -0.34261847 -0.23150094 -0.16515498
0002b0 1b 6f f0 bd 9a 26 b6 3e e2 53 79 be 72 e8 aa bb
       -0.11739942 0.35576326 -0.24348405 -0.005215698
0002c0 d2 e8 f8 be e9 be 17 3d d9 03 87 be 66 c2 82 3e
       -0.48615128 0.0370473 -0.26370123 0.2553894
0002d0 94 f8 b1 3b d3 28 05 3d 9c 3d 0e be 30 05 c2 bd
       0.005431244 0.032509636 -0.1389069 -0.09473646
0002e0 89 eb 33 bd fc f5 8f 3e 92 eb 80 3e 56 61 1e be
       -0.043925796 0.2811736 0.25179726 -0.15466818
0002f0 3d 42 63 be 35 e9 e7 3d 08 46 f3 3c 88 f8 58 3e
       -0.22193237 0.113237776 0.02969648 0.21188557
000300 d7 f6 98 be 73 7b 42 be 6b 62 a1 be 2e e4 fd bd
       -0.29875824 -0.18992405 -0.315204 -0.123970374
000310 f4 76 8a 3e 31 85 af 3e b3 54 b9 3e bf 43 55 be
       0.2704388 0.34281304 0.36197433 -0.20826624
000320 a8 28 c7 bc 40 6b ec 3c 24 66 ef 3d 23 95 5f be
       -0.024311379 0.028859735 0.11689404 -0.21834235
000330 00 4d bc 3c c7 b1 c5 3e c2 7c ee 3d f7 26 96 be
       0.022985935 0.38612196 0.116448894 -0.29326603
000340 18 3e 83 3e c9 ce a9 be d2 34 39 3e ae ba 8f 3e
       0.2563331 -0.33165577 0.18086556 0.28072113
000350 e2 82 97 3e 0e 15 12 3c 17 ad 47 bd b3 e0 59 be
       0.29592043 0.008916153 -0.048749056 -0.21277122
000360 d6 fc 14 3e 00 15 d1 bd 5f 61 2d 3d 79 25 34 3e
       0.14549574 -0.102090836 0.04232919 0.1759242
000370 99 c9 c5 3e 45 fb f1 bd ad 02 4e be 41 7e 78 bd
       0.3863037 -0.11815504 -0.20118208 -0.06066728
000380 81 75 2a be 22 8e 70 3e 1d ec 95 3e 1c 2f b7 3e
       -0.16646387 0.2349172 0.29281703 0.3577813
000390 47 7a 64 3e 42 2f b5 3e ba 59 14 3e e0 f8 43 3e
       0.2231227 0.35387617 0.14487353 0.19137907
0003a0 d2 99 e7 3d 90 54 73 bd 07 f7 b1 be ec 67 8f be
       0.11308636 -0.059406817 -0.3475878 -0.28008974
0003b0 17 16 b3 bd c8 62 d8 3d 12 5d 6a 3e e1 09 57 3e
       -0.08744448 0.10565716 0.22887066 0.20999862
0003c0 48 8c 81 be 1c 0f a9 be 26 e8 fa 3c a5 76 9b be
       -0.2530234 -0.3301934 0.030628275 -0.30363956
0003d0 97 51 ad 3d b2 ea d1 bd a5 61 bd be 63 74 6b be
       0.08462828 -0.10249843 -0.3698856 -0.22993617
0003e0 d4 66 5f bd b8 78 ad be 80 0b 9e bd a6 3d 78 3e
       -0.054541424 -0.33881164 -0.07717037 0.24242267
0003f0 26 0f a9 be 0f e6 c8 bc f2 aa 81 be 46 9e a1 bd
       -0.3301937 -0.024523763 -0.25325733 -0.078915164

FC2.0.bias f4 [16]
000000 3c ae aa 3d fe 90 2b 3e bd a7 a2 3e f3 76 a4 3e
       0.08334014 0.16754529 0.317686 0.32122
000010 97 3b a6 bd 53 54 45 3e 5f 1a bc 3e 36 b0 84 3e
       -0.081168346 0.19270448 0.3673887 0.25915688
000020 c8 eb 5c 3e 64 5f 03 3e ce 79 84 bd 44 bc 38 bc
       0.21574318 0.12829357 -0.06468545 -0.011275355
000030 f3 95 ba 3e d3 79 a7 bc 21 1b 90 bd df 11 6f bc
       0.36442527 -0.020443833 -0.070364244 -0.014591663

last_layer.weight f4 [3, 16]
000000 f5 06 3b 3f 75 40 9e 3e 25 7a 5b 3f e2 14 cf 3f
       0.7305749 0.30908552 0.8573325 1.6178248
000010 f3 a5 d1 be 9a a0 b5 3d 56 9f b8 3f 2f 5f 82 3f
       -0.40946922 0.08868523 1.4423625 1.0185298
000020 77 3d 24 3f 8f f3 14 3f 81 e6 3e 3e bd ed f2 bf
       0.6415629 0.5818414 0.18642618 -1.8978802
000030 1b 04 c3 3f b7 7b e7 bf 68 e6 eb bf c0 7d 52 bf
       1.5235628 -1.808463 -1.842969 -0.8222313
000040 cf 10 c9 bf 03 9e 96 3f 4a 82 04 3f df 18 df bf
       -1.5708255 1.1766971 0.51761305 -1.7429465
000050 c3 31 bc bf 46 4b 88 3f 05 dc f4 bf bc 9d dc bf
       -1.4702686 1.0647972 -1.9129645 -1.7235637
000060 c5 c9 56 3f 0b bd 90 3f f5 4a b4 bf d0 75 99 3e
       0.83901626 1.1307691 -1.4085375 0.29972696
000070 e6 f1 79 bf b3 02 f6 3e 1e 8e a7 3e 1f 77 20 bf
       -0.9763473 0.48048934 0.32725614 -0.62681764
000080 71 39 8b 3f 67 85 af bf 6b 4b d5 bf 7e aa 0e bf
       1.0876905 -1.3712586 -1.6663641 -0.557289
000090 96 96 87 3f bb e8 b6 bf 6f f3 e9 be a0 e1 32 3f
       1.059283 -1.4289774 -0.45693538 0.69875526
0000a0 43 1b fb bf 48 31 c9 bf 18 ef a8 3f 38 e1 af 3e
       -1.9617695 -1.5718164 1.3197966 0.34351516
0000b0 7e 4f ac bf 53 c5 02 3f b4 24 c8 3e f2 15 81 3f
       -1.3461759 0.5108234 0.39090502 1.0084822

last_layer.bias f4 [3]
000000 30 70 da bc 1d c4 17 3e 78 4f 03 be
       -0.026664823 0.14820905 -0.12823284

exp_avg f4 [128, 192]
000000 6c d3 35 ba cc 48 20 b9 0e 24 46 3a 56 ba 28 39
       -0.00069361064 -0.00015285908 0.0007558473 0.00016091144
000010 a1 e4 b9 3a 68 36 a9 b9 de 23 7f ba d8 c7 10 3a
       0.0014182517 -0.00032274728 -0.00097328227 0.0005522943
000020 68 00 f2 38 72 c3 64 3a 30 f6 ad ba 0c bc 84 3a
       0.00011539535 0.00087266334 -0.0013272222 0.0010126843
000030 40 10 17 ba 16 6f f0 39 f4 5d 2a ba e5 ea cf 39
       -0.00057626143 0.00045859133 -0.00064989855 0.00039657127
000040 d0 ad e7 38 a6 dc 74 39 7f 71 34 3a 78 af a0 ba
       0.000110473135 0.00023351851 0.00068833673 -0.0012259325
000050 20 8b 8d 38 21 0f c8 ba 16 d1 db ba a9 87 76 3a
       6.749318e-05 -0.0015263298 -0.0016770686 0.000940437
000060 8d 80 2e bb 58 fb 4d 3a ea 50 d3 ba 83 84 20 ba
       -0.0026626915 0.00078575825 -0.0016122137 -0.00061232614
000070 98 9d 16 3a 74 93 4f 3a 06 44 e3 3a 6f 4d a8 ba
       0.0005745529 0.00079183956 0.0017338998 -0.001284046
000080 a2 4c 40 b9 0b 44 22 3a ea 8a 63 3a 90 ac 39 b7
       -0.00018339095 0.0006189949 0.00086800626 -1.1067037e-05
000090 8f 54 f8 ba e6 82 97 3a 9a 9e 7c 3a 58 cd 04 b9
       -0.0018946099 0.0011559397 0.00096366706 -0.00012664997
0000a0 11 02 58 ba d2 6f 74 39 f5 a7 d4 b9 c3 33 76 b9
       -0.0008240054 0.0002331131 -0.0004056093 -0.00023479671
0000b0 a0 d8 d5 38 2e d9 97 3a 5b e6 ab ba 80 67 76 3a
       0.00010196981 0.001158511 -0.0013114916 0.0009399578
0000c0 d0 2b 1d bb b9 b0 0a ba f4 a3 e0 39 cb ee 4f ba
       -0.0023982413 -0.0005290616 0.00042846764 -0.0007932006
0000d0 50 84 a6 39 61 7f fc b9 18 14 da b8 93 19 52 3a
       0.00031760568 -0.0004816009 -0.00010398793 0.0008014675
0000e0 fd a6 f4 39 ee 0b 97 ba 66 b8 7d 3a 30 10 db b9
       0.00046663723 -0.0011523941 0.00096786616 -0.00041782996
0000f0 98 cd 82 3a cb 04 9b 3a 52 8b 2c b9 18 45 fc 39
       0.0009979485 0.001182699 -0.00016455099 0.00048116664
000100 f4 eb 8b 3a f6 df 2a b9 ff da 5a ba ac 72 0e 3a
       0.0010675178 -0.00016295895 -0.0008348673 0.00054339576
000110 da ab e8 3a c5 06 c0 3a 6c 29 76 ba 9a 1c f1 ba
       0.0017751411 0.0014650455 -0.00093903276 -0.0018395365
000120 1c e6 2e 3a f0 a2 4a 3a 6d 6c 3d ba 71 9e 42 ba
       0.0006671862 0.0007729968 -0.00072259345 -0.00074241223
000130 10 74 24 3b 4c 9c 66 39 7e ab 33 bb 5c 0c b3 b9
       0.0025093593 0.00021992734 -0.002741545 -0.0003415075
000140 05 ad 9a ba 98 77 53 39 fb f9 7f 3a f4 83 7a 3a
       -0.0011800831 0.0002016708 0.0009764728 0.0009556406
000150 f8 20 20 3a 3f 28 78 ba 92 6f ea 3a c3 27 94 ba
       0.00061084284 -0.00094664464 0.0017886034 -0.0011303354
000160 14 be 72 3a b4 67 a0 39 15 ca 2c 39 78 65 89 ba
       0.0009259891 0.00030594843 0.0001647848 -0.001048251
000170 35 10 4c ba 8a 94 c2 b9 b1 3e d7 ba b9 82 fc ba
       -0.00077843975 -0.00037113234 -0.0016421882 -0.0019265033
000180 d0 b4 2a 38 18 50 81 39 bc b5 c0 39 d1 ff ab 39
       4.0699553e-05 0.00024664472 0.00036756496 0.0003280626
000190 3c f2 a2 38 b0 11 2a 38 a0 d4 6d 37 d6 47 95 39
       7.7698816e-05 4.054763e-05 1.4175806e-05 0.00028473017
0001a0 38 ed d8 b9 6f b6 36 ba 17 4a 4c b9 97 8a c6 39
       -0.00041375472 -0.0006969934 -0.00019482557 0.0003786876
0001b0 e0 e0 76 39 1a 65 f4 b9 66 ad 84 ba f2 b0 56 b9
       0.0002354416 -0.00046614633 -0.0010122478 -0.00020474548
0001c0 7b d0 9d 3a bb 41 4d 39 58 dd 29 3a 17 32 87 3a
       0.0012040281 0.0001957481 0.0006479821 0.001031461
0001d0 80 66 85 3a 94 b2 3b 3a 8e 87 f3 38 4b 29 98 38
       0.0010177642 0.0007160094 0.00011612392 7.255616e-05
0001e0 72 bf 3c 3a cf 19 81 b9 2e ce 18 39 34 37 9e b9
       0.00072001584 -0.00024624026 0.00014572658 -0.00030177238
0001f0 70 11 26 ba ae a9 53 3a ac b9 a7 b9 e5 ab 03 3a
       -0.0006334996 0.00080742955 -0.00031991058 0.00050228677
000200 06 85 44 ba e2 f6 e6 38 68 07 72 3a 35 b1 f1 b9
       -0.00074966287 0.0001101324 0.0009232671 -0.00046099132
000210 98 0a e8 b9 50 c6 1c ba e0 f7 06 3a df d4 78 39
       -0.0004425838 -0.00059804786 0.00051486306 0.00023730424
000220 ec 17 ea b9 5a 00 50 b9 7c 49 39 ba 76 24 97 3a
       -0.0004464978 -0.00019836557 -0.000706814 0.0011531252
000230 42 e6 84 38 3b 5a 55 ba 80 0a 7a 3a 64 a8 1f 39
       6.337139e-05 -0.00081387506 0.0009538308 0.00015226152
000240 2e f5 43 3a a8 f0 21 3a a8 34 c0 39 82 9f 1a ba
       0.0007475194 0.0006177523 0.00036660326 -0.00058984023
000250 c0 a9 d1 b7 13 f8 44 ba 2c 70 00 b9 86 21 13 ba
       -2.4993788e-05 -0.00075137726 -0.00012248819 -0.00056126004
000260 33 77 fc b9 b0 47 6d b8 2c a8 03 ba 68 cb bd 39
       -0.00048153996 -5.6571967e-05 -0.0005022313 0.0003620044
000270 a3 09 8b ba e6 eb 50 b9 1c 24 a5 ba ac 46 23 3a
       -0.001060773 -0.00019924305 -0.0012599262 0.00062284875
000280 fc fe 67 b9 21 83 92 39 c2 33 57 39 be c5 4d 39
       -0.00022124866 0.0002794499 0.00020523279 0.00019623988
000290 f1 73 65 39 a0 68 12 b7 d6 38 b6 39 ae 63 23 ba
       0.00021882333 -8.726638e-06 0.0003475609 -0.000623281
0002a0 c3 4d b8 39 68 b6 53 ba 08 4c 33 3a 00 b5 11 b9
       0.00035153152 -0.0008076192 0.00068396376 -0.00013895705
0002b0 99 f8 29 3a d4 ef d5 38 80 cc 52 38 50 76 9c b7
       0.00064838823 0.00010201303 5.0258357e-05 -1.8651743e-05
0002c0 fd 93 1d 3a 10 7b 1c 39 00 46 12 b8 74 33 3b ba
       0.00060111267 0.00014923164 -3.4874305e-05 -0.0007141151
0002d0 44 be 0b ba fb dc e4 39 cc 38 19 ba 82 78 81 39
       -0.0005330781 0.00043652192 -0.000584495 0.00024694583
0002e0 e3 9d 10 3a 82 03 2a ba cc f1 f9 b9 23 df 64 ba
       0.0005516691 -0.0006485508 -0.00047673134 -0.000873076
0002f0 e6 b9 2f b9 10 d5 02 39 48 ca a1 38 98 e9 1a ba
       -0.00016758553 0.00012477138 7.714756e-05 -0.0005909442
000300 11 9a c5 b9 6a fa 57 3a a7 1d 49 3a ba 4b 21 ba
       -0.00037689556 0.0008238914 0.000767196 -0.0006152947
000310 63 41 b0 3a fb db 56 ba ef aa 18 ba 56 e0 ad b9
       0.0013447221 -0.0008196232 -0.0005823811 -0.00033164275
000320 e0 e1 78 38 7a d7 28 3a 7a e4 ba 39 49 df b6 3a
       5.933817e-05 0.00064408 0.00035646913 0.0013952042
000330 d4 18 1c ba 73 90 fe b9 9b e3 54 ba 6d 93 82 ba
       -0.00059546274 -0.00048554278 -0.0008121074 -0.0009962149
000340 1c 67 92 3a 06 78 38 ba 3a af 30 3b ab 1e 11 bb
       0.0011169645 -0.0007036928 0.0026959912 -0.0022143524
000350 0c fd 01 3b a4 53 e2 ba f6 7a 74 3a 43 c8 85 ba
       0.0019834666 -0.0017267358 0.0009326184 -0.0010206777
000360 9c c1 4d 3a b4 a1 18 3a 88 b5 d9 ba ee 48 81 ba
       0.00078489794 0.00058224355 -0.0016609887 -0.0009863654
000370 6a 64 11 b9 a6 f8 2d bb 85 20 92 3b 96 45 2d 3a
       -0.00013865685 -0.002654591 0.004459443 0.00066097954
000380 20 32 63 ba 03 67 87 39 23 60 60 3a c2 0b 03 ba
       -0.0008666832 0.00025825956 0.00085592474 -0.00049990055
000390 d0 77 bf 38 68 95 77 39 a0 10 a3 b8 de 1b b6 39
       9.1299065e-05 0.00023611414 -7.775542e-05 0.00034734508
0003a0 e6 38 1b bb bb f5 69 3a ea 9a 2d 3a c0 e9 3e ba
       -0.0023685037 0.00089248613 0.000662251 -0.0007282756
0003b0 30 29 32 bb f2 a3 81 3a 68 d1 05 3a 21 70 ac 3a
       -0.0027185194 0.0009890778 0.00051047513 0.0013155976
0003c0 d8 01 22 bb 38 1c a4 ba 52 2e 9a ba 08 bc ab ba
       -0.0024720337 -0.0012520617 -0.0011763072 -0.0013102302
0003d0 11 77 4e 3b e3 8d 63 ba e1 5d ac 3a 76 1f 5e 3a
       0.0031504075 -0.00086805056 0.0013150537 0.0008473316
0003e0 e2 30 2b 3b 36 39 46 39 cc 87 c4 ba 7e 21 d2 ba
       0.0026121666 0.00018904064 -0.0014994084 -0.001603171
0003f0 9a 98 83 ba 6f 7c 02 bb 8a 6f 5d bb e8 81 ca 39
       -0.0010039986 -0.0019910594 -0.0033788406 0.0003862523

exp_avg_sq f4 [128, 192]
000000 9e d5 90 37 fc 38 02 38 b0 d4 9f 37 32 76 f7 37
       1.7265611e-05 3.1047486e-05 1.9053317e-05 2.9499734e-05
000010 8d 5f 8b 37 9c 4c 94 37 3a 19 88 37 ba c6 ce 37
       1.6614586e-05 1.7678649e-05 1.622421e-05 2.4649653e-05
000020 f1 5a 8b 37 a5 13 b0 37 cd 93 cc 37 72 92 d8 37
       1.661244e-05 2.0989983e-05 2.438752e-05 2.58174e-05
000030 45 0e 00 38 4d 29 c3 37 53 fd 01 38 74 8f e5 37
       3.0530868e-05 2.3265044e-05 3.0991923e-05 2.7365728e-05
000040 26 a1 bd 37 cd a4 d2 37 2d 4f c8 37 8a ce f1 37
       2.2605596e-05 2.5110692e-05 2.3878727e-05 2.8825616e-05
000050 a8 65 a3 37 5e 72 e4 37 5a 86 e7 37 4d 37 b7 37
       1.9478452e-05 2.7232974e-05 2.7599908e-05 2.1841051e-05
000060 73 d6 ee 37 f8 18 98 37 19 0c cd 37 b8 33 f5 37
       2.8471672e-05 1.8131439e-05 2.4443538e-05 2.923036e-05
000070 9e 84 f1 37 2b fb c6 37 81 a6 cf 37 ea ae bb 37
       2.8791193e-05 2.3720399e-05 2.4753857e-05 2.2373588e-05
000080 b0 3c f1 37 6f 87 f7 37 35 33 02 38 13 fa 06 38
       2.8757699e-05 2.950776e-05 3.1042106e-05 3.218099e-05
000090 38 ab 04 38 94 09 b5 37 ed b0 d7 37 81 72 13 38
       3.1630712e-05 2.1581342e-05 2.5712385e-05 3.515417e-05
0000a0 e0 40 d6 37 96 94 e8 37 a7 33 d2 37 e9 7a 01 38
       2.5540998e-05 2.7725746e-05 2.5058003e-05 3.0870466e-05
0000b0 c8 5a 04 38 33 6b f7 37 5f a3 f4 37 23 6c ed 37
       3.15558e-05 2.9494613e-05 2.9163142e-05 2.8302957e-05
0000c0 d2 b2 08 38 f7 d9 d4 37 15 43 d6 37 f2 bd dc 37
       3.2591466e-05 2.5373867e-05 2.5542025e-05 2.6314494e-05
0000d0 9b 08 06 38 3c e8 eb 37 18 0e fa 37 90 d8 d5 37
       3.1956104e-05 2.8122326e-05 2.9808885e-05 2.5492423e-05
0000e0 72 3f fb 37 a1 d2 f6 37 fe 85 01 38 41 02 fe 37
       2.9951076e-05 2.9423567e-05 3.0880787e-05 3.028021e-05
0000f0 28 3c 01 38 bf 31 22 38 02 c7 07 38 af 7e 1c 38
       3.081202e-05 3.867014e-05 3.237185e-05 3.731128e-05
000100 d8 d2 e9 37 90 69 f5 37 58 a9 09 38 89 8b d6 37
       2.7873946e-05 2.9255432e-05 3.282106e-05 2.5575764e-05
000110 76 74 f8 37 fa ae 02 38 68 ff c4 37 3e 00 03 38
       2.9618135e-05 3.1157375e-05 2.3483954e-05 3.123306e-05
000120 4a 44 ef 37 6e ac 08 38 ba 5f ef 37 f2 32 06 38
       2.852282e-05 3.2585514e-05 2.8535596e-05 3.1995536e-05
000130 1e 7b 18 38 4f 17 05 38 21 2f 0e 38 cb ef f5 37
       3.6354286e-05 3.173138e-05 3.389933e-05 2.9317938e-05
000140 8e 13 f4 37 72 5f 12 38 6a 15 1c 38 8d 15 3b 38
       2.9096173e-05 3.4898003e-05 3.721324e-05 4.4604345e-05
000150 af 42 13 38 59 a2 fc 37 d8 c3 07 38 a3 be 21 38
       3.5109635e-05 3.011634e-05 3.2368902e-05 3.8562936e-05
000160 e9 eb 0d 38 14 f8 14 38 6e cf 0a 38 f5 38 05 38
       3.3836728e-05 3.551699e-05 3.3094948e-05 3.1762716e-05
000170 7e 13 17 38 50 7d 0e 38 b1 6d ed 37 d8 71 26 38
       3.601936e-05 3.3972145e-05 2.830368e-05 3.968351e-05
000180 5a 8c 14 38 c3 85 8f 37 8e 45 d1 36 09 ff e6 37
       3.5416662e-05 1.7109216e-05 6.2367826e-06 2.7536897e-05
000190 f6 35 1e 37 cd 84 86 37 a9 70 94 37 9e 72 15 37
       9.430098e-06 1.6035885e-05 1.7695436e-05 8.9077785e-06
0001a0 1b 24 06 37 5b ad 37 37 00 69 5d 37 61 02 a0 36
       7.995429e-06 1.09480125e-05 1.3197074e-05 4.7686485e-06
0001b0 14 e2 55 37 30 b3 96 37 8c fd 0b 37 ab 12 77 37
       1.2748427e-05 1.7964834e-05 8.344079e-06 1.4726694e-05
0001c0 9e a6 34 37 e0 cd b1 36 e9 70 08 36 55 24 f5 36
       1.076763e-05 5.298978e-06 2.0331302e-06 7.3057986e-06
0001d0 72 9a 02 37 70 a2 9d 37 bc 9b 35 37 7c e6 1d 37
       7.784563e-06 1.87915e-05 1.08247e-05 9.411593e-06
0001e0 37 43 27 37 e1 6e 0a 37 84 03 01 37 3f 36 03 37
       9.969625e-06 8.251257e-06 7.689818e-06 7.820839e-06
0001f0 f2 7c 3c 37 0e 48 bb 36 92 46 d2 36 9a 65 9c 36
       1.1234764e-05 5.5814226e-06 6.266703e-06 4.6609903e-06
000200 17 47 0e 37 c9 ea 65 36 d1 bd dc 36 35 f8 dd 36
       8.480411e-06 3.4260322e-06 6.5786085e-06 6.6152083e-06
000210 3a 5b 84 36 48 ab 96 36 16 c7 84 37 bb 0c 29 37
       3.9445267e-06 4.490288e-06 1.5828333e-05 1.0076149e-05
000220 d8 87 4a 36 be 6b dc 36 de ec d1 36 60 e8 17 37
       3.0179417e-06 6.5690538e-06 6.2562603e-06 9.054405e-06
000230 ff 61 d1 37 ba cd 05 37 3b 92 36 37 64 79 1f 37
       2.4960375e-05 7.975317e-06 1.0882092e-05 9.505402e-06
000240 66 09 d5 36 0f 39 c3 36 37 39 7f 37 d3 fd e5 36
       6.348989e-06 5.8180954e-06 1.5212506e-05 6.854281e-06
000250 f4 ae d5 36 c7 df 34 37 96 7c ff 36 0e fe a1 36
       6.368262e-06 1.0780938e-05 7.614096e-06 4.8277498e-06
000260 e4 2a d2 36 50 45 1c 37 c6 99 88 36 60 77 3b 37
       6.263481e-06 9.314463e-06 4.0710174e-06 1.1173863e-05
000270 23 2d 9a 37 05 ac 15 37 65 ba 0e 37 d3 82 9b 36
       1.8379249e-05 8.9211435e-06 8.507258e-06 4.63459e-06
000280 a2 1b 00 37 3f 72 af 36 e8 04 ab 36 7f fd de 36
       7.635828e-06 5.2287064e-06 5.0967683e-06 6.6456264e-06
000290 f2 43 06 37 09 e1 9c 36 cb 12 13 37 6f c7 b1 36
       8.002842e-06 4.67536e-06 8.766258e-06 5.298228e-06
0002a0 c2 dc d2 36 ec 35 fa 36 80 27 bc 37 16 3b 1b 37
       6.2841873e-06 7.456858e-06 2.242974e-05 9.252477e-06
0002b0 a9 4b cc 36 af ef ed 36 70 32 e6 36 8d 0a 3d 36
       6.0884818e-06 7.0910532e-06 6.860406e-06 2.8169336e-06
0002c0 38 ca 3f 37 32 ad a0 36 14 c9 22 37 70 41 09 37
       1.143157e-05 4.788534e-06 9.70277e-06 8.181072e-06
0002d0 f5 be a4 36 6a de f1 36 69 ff 96 37 01 40 aa 36
       4.909811e-06 7.208252e-06 1.8000328e-05 5.073846e-06
0002e0 0a ba 2d 37 1e 86 dc 37 07 fd c1 36 c7 24 df 36
       1.0354919e-05 2.6288497e-05 5.7813045e-06 6.6501993e-06
0002f0 4a 85 61 36 d6 2e 02 37 05 c6 0b 37 3b 30 b8 36
       3.3605197e-06 7.759509e-06 8.331151e-06 5.489242e-06
000300 7b a7 81 37 54 5f ba 37 f5 0e e3 37 5a a7 07 38
       1.5455988e-05 2.2217318e-05 2.7067474e-05 3.2342366e-05
000310 b2 1d b7 37 42 a3 91 37 d4 08 87 37 4c 98 c0 37
       2.1829128e-05 1.736137e-05 1.6097365e-05 2.2959102e-05
000320 e5 64 ad 37 a8 96 7e 37 7e 3e cf 37 ec e8 08 38
       2.067019e-05 1.5174657e-05 2.4705423e-05 3.2641852e-05
000330 b0 4b c3 37 0d db ab 37 8d 8c d5 37 49 6b c5 37
       2.3281056e-05 2.0486792e-05 2.5457028e-05 2.3534189e-05
000340 b2 e5 c4 37 e1 4d 85 37 1e e6 06 38 da 34 db 37
       2.3471981e-05 1.58911e-05 3.2162403e-05 2.6131445e-05
000350 0d 8e ad 37 98 ef fd 37 f9 64 04 38 50 88 c7 37
       2.0689355e-05 3.027152e-05 3.156529e-05 2.3786124e-05
000360 a3 80 bf 37 14 a0 b0 37 7c be 04 38 84 ed de 37
       2.2828875e-05 2.1055377e-05 3.1648655e-05 2.6575064e-05
000370 34 a6 bc 37 1d a7 bb 37 8b f6 ed 37 76 b4 bb 37
       2.248874e-05 2.2369955e-05 2.8367407e-05 2.237617e-05
000380 3b 83 d4 37 b4 2b c7 37 57 3e 10 38 b6 4c 20 38
       2.5333478e-05 2.3743e-05 3.4390334e-05 3.8218415e-05
000390 db 1c bb 37 35 8f eb 37 53 83 43 38 c1 c5 c5 37
       2.2305574e-05 2.8080869e-05 4.6613928e-05 2.3576316e-05
0003a0 67 ee c0 37 39 d5 05 38 db 62 f0 37 18 1c cd 37
       2.2999198e-05 3.190825e-05 2.8656263e-05 2.4450987e-05
0003b0 38 21 0c 38 4f f8 ec 37 73 da ed 37 b6 63 fe 37
       3.340954e-05 2.824902e-05 2.8354325e-05 3.0325591e-05
0003c0 b2 8b 13 38 3c e4 07 38 1a f0 1c 38 7d b7 bd 37
       3.5177633e-05 3.2399068e-05 3.741691e-05 2.2616e-05
0003d0 e5 fb 15 38 5a d8 c6 37 12 28 ed 37 55 24 03 38
       3.5758963e-05 2.3704186e-05 2.827126e-05 3.126667e-05
0003e0 70 e8 05 38 e2 2b 17 38 fb 72 f1 37 33 7d ef 37
       3.1926145e-05 3.6042074e-05 2.878298e-05 2.854932e-05
0003f0 87 28 e3 37 37 18 1b 38 55 79 04 38 42 cc d7 37
       2.707938e-05 3.697743e-05 3.158425e-05 2.5725112e-05

exp_avg f4 [128]
000000 20 0d 31 b7 be 86 5d 39 75 5f 6e ba 00 a3 b6 b9
       -1.0553078e-05 0.00021126398 -0.00090932037 -0.0003483519
000010 40 8b cf 39 60 3d c8 39 b0 de 62 39 1c 19 85 3a
       0.00039585866 0.000381927 0.00021635997 0.0010154578
000020 56 43 33 3b 44 a6 8a ba 4c 17 04 bb 15 40 33 3b
       0.0027353368 -0.0010578115 -0.0020155488 0.0027351428
000030 18 49 39 3a b8 8c 87 ba 63 ef 42 3a 26 3f 22 ba
       0.0007068082 -0.001034162 0.0007436184 -0.00061892194
000040 8a 0f 98 3a df 07 fd ba 36 f8 97 ba ea f9 50 3a
       0.0011601311 -0.0019304714 -0.0011594358 0.00079718104
000050 36 8e 9b 39 16 ef d6 b9 c4 80 e1 39 e5 e6 17 ba
       0.0002966986 -0.00040995394 0.00043011282 -0.0005794599
000060 04 3f 1a 39 a1 da 24 3a 70 d1 85 38 56 e0 1a 3b
       0.0001471006 0.0006288682 6.380945e-05 0.002363225
000070 53 f3 9d 3a 28 f1 a9 39 37 56 11 3a 20 2c b8 b7
       0.0012050666 0.00032413867 0.0005544158 -2.1955057e-05
000080 1d 17 3a 3a cf 51 2a 3a f5 a8 c4 ba 5a 24 22 3a
       0.0007098781 0.0006497176 -0.0015003966 0.00061852264
000090 44 fd 5c b9 dc 2a 10 3a e9 53 ed ba 27 7f a1 bb
       -0.00021075184 0.00054995506 -0.0018106672 -0.004928488
0000a0 ec f1 94 ba 1b bc 3a 3a a9 1a f2 3a 63 1c da 3a
       -0.0011363602 0.0007123367 0.001847108 0.001664054
0000b0 8c b8 a2 39 ea 99 8f b9 43 7e 70 3b 38 42 05 3b
       0.00031036546 -0.0002738976 0.0036696352 0.002033366
0000c0 35 9e 91 ba 24 58 0d 3a 07 ee 3e 3a 27 06 02 bb
       -0.0011109771 0.0005391857 0.00072833936 -0.0019840093
0000d0 54 42 9c 39 16 be 69 39 9a a9 fe b9 fa 55 3f 3a
       0.00029804057 0.00022291424 -0.00048573018 0.0007298883
0000e0 1c fd e5 3a 39 ec 1f ba 73 5d da ba 0e c7 0e 3b
       0.0017546746 -0.00061005686 -0.001665993 0.0021786126
0000f0 46 cb 11 3b 45 5a ba 37 cc 68 6c 3a 24 b4 54 39
       0.0022246405 2.2214963e-05 0.00090183015 0.00020285003
000100 f0 80 0d 3b da 56 15 3b 07 4d 2b 3b 08 01 70 ba
       0.0021591745 0.0022787363 0.0026138441 -0.0009155427
000110 44 c8 58 ba f7 fe fa ba ee 70 1f 3a 38 d9 76 3a
       -0.0008269588 -0.0019149472 0.00060821965 0.00094165234
000120 16 2d d7 39 c0 49 b1 b8 46 f0 da 39 82 35 5e 39
       0.00041041587 -8.453755e-05 0.00041759218 0.00021191503
000130 e2 db 9c 39 3d 26 c2 3a 52 e4 81 b9 67 c1 4e 39
       0.00029918464 0.0014812421 -0.0002477491 0.00019717739
000140 06 1e a0 3a 8f 44 2e 3b ed a7 26 ba 0e d4 f8 ba
       0.0012215979 0.0026591157 -0.00063574204 -0.0018984096
000150 80 53 bb 37 f5 0a b6 ba e0 00 dd 3a 75 06 89 ba
       2.233102e-05 -0.0013888763 0.0016861223 -0.0010454195
000160 36 86 c2 ba 70 7c 60 ba be 5e 93 ba a8 f9 a5 ba
       -0.0014841023 -0.00085634645 -0.0011243445 -0.0012662904
000170 47 3e a8 ba 53 bd b0 3a 50 0c b6 38 58 63 8d 38
       -0.0012835943 0.0013484157 8.68073e-05 6.741908e-05
000180 c3 f5 94 3a 61 ad a9 ba ec 05 2a bb a8 44 40 ba
       0.0011364747 -0.0012945348 -0.002594347 -0.00073344493
000190 c0 d5 e5 ba a1 cb 58 bb f8 e4 4d ba b4 fa b1 ba
       -0.0017535016 -0.0033080357 -0.00078542484 -0.0013578744
0001a0 07 5c cd ba 24 dc d6 3a 01 6c 86 3a 40 1d 6c 38
       -0.0015667685 0.0016392511 0.0010255576 5.6294026e-05
0001b0 8b 6e 01 3b 23 2c 68 3a 96 51 66 bb 0e 72 cc 3a
       0.0019749727 0.00088566745 -0.0035143844 0.0015597956
0001c0 f4 d5 9b 3a 5c 77 a6 39 5d 0a df ba a6 68 b7 ba
       0.0011889325 0.00031750917 -0.0017016638 -0.001399298
0001d0 80 c1 ac 3a 3d c4 85 3a b8 2b b6 37 5a 08 ce 39
       0.0013180226 0.0010205578 2.1716449e-05 0.00039297604
0001e0 78 ba 35 3a 5b 16 f0 3a 65 b1 2c 3b 08 0d 77 b9
       0.0006932388 0.0018317209 0.0026350853 -0.0002356061
0001f0 c8 b6 0c 3a 1c 0f 1c 3a de 86 85 3a 1a 7b 01 3a
       0.00053678127 0.0005953179 0.0010187288 0.0004939303

exp_avg_sq f4 [128]
000000 76 66 50 38 af 09 3e 38 da 7f 92 38 f7 bd e1 38
       4.968649e-05 4.530855e-05 6.985637e-05 0.0001076422
000010 f2 50 84 38 38 64 41 38 5b 43 d9 38 1c 4e cc 38
       6.309328e-05 4.610812e-05 0.00010359912 9.742027e-05
000020 8a 8b 84 38 b9 8b 82 38 ec f3 6b 38 c2 bf a1 38
       6.320242e-05 6.2249084e-05 5.6255536e-05 7.712796e-05
000030 74 b5 1d 38 c7 e8 20 38 2a c4 2b 38 99 8d 2a 38
       3.760071e-05 3.8363763e-05 4.095227e-05 4.066303e-05
000040 12 7b 33 38 c8 d1 9f 38 9d 67 62 38 ab 94 36 38
       4.2791544e-05 7.6207856e-05 5.3979096e-05 4.353064e-05
000050 de eb 15 38 45 8c ca 37 5f a6 94 38 1c f2 c2 38
       3.5744037e-05 2.4145595e-05 7.088179e-05 9.295737e-05
000060 c7 49 00 38 94 ee 83 38 75 b9 a9 38 20 07 27 38
       3.058629e-05 6.2910054e-05 8.093092e-05 3.982254e-05
000070 3b d6 a5 38 99 c0 fb 37 fb 4c 45 38 2a 05 56 38
       7.907717e-05 3.0011217e-05 4.7040154e-05 5.1026385e-05
000080 de ff 59 38 08 fc 5f 38 28 bd 8c 38 d7 c8 35 38
       5.1975127e-05 5.3402066e-05 6.710953e-05 4.334081e-05
000090 42 6a 16 38 ef 32 0e 39 f9 a3 13 38 c6 a6 a9 38
       3.5861747e-05 0.0001356115 3.5200243e-05 8.089612e-05
0000a0 67 a0 81 38 83 3e a6 38 46 10 3d 38 0d 37 86 38
       6.1810766e-05 7.9271405e-05 4.5076267e-05 6.399872e-05
0000b0 e4 46 6f 38 88 d1 f6 38 0f 25 6c 38 12 0b eb 37
       5.7048062e-05 0.00011769222 5.6301298e-05 2.8019338e-05
0000c0 95 d0 c3 38 bc 1d ba 37 30 42 84 38 9c a4 98 38
       9.337176e-05 2.2186774e-05 6.306579e-05 7.278586e-05
0000d0 4d ed 5f 38 c6 d4 2f 38 6d 73 0b 38 a5 cc 20 38
       5.3388347e-05 4.1921412e-05 3.324768e-05 3.8337563e-05
0000e0 ee 51 03 38 c5 ab 87 38 35 db b9 38 d9 0b 91 38
       3.1309137e-05 6.469296e-05 8.862318e-05 6.9163456e-05
0000f0 95 b6 dd 37 72 84 39 38 88 50 41 38 d4 2c 62 38
       2.6430274e-05 4.4230786e-05 4.6089786e-05 5.392435e-05
000100 3b 65 6e 38 31 03 ad 38 e7 ea a3 38 2b 2a 05 38
       5.68379e-05 8.249877e-05 7.8162e-05 3.1748943e-05
000110 20 7a a4 38 10 0a d4 38 48 7d 90 38 b6 c4 a6 38
       7.842877e-05 0.00010110822 6.8897905e-05 7.952137e-05
000120 66 60 35 38 b1 c4 17 38 03 39 3d 38 6c 31 30 38
       4.324354e-05 3.618439e-05 4.5114208e-05 4.2007698e-05
000130 d1 46 72 38 3b f9 01 39 ad 65 20 38 5c a0 8a 38
       5.776325e-05 0.00012395244 3.8241666e-05 6.610222e-05
000140 4e a7 a9 38 f8 0a 4d 38 e3 ef a6 38 10 14 a1 38
       8.089711e-05 4.8886024e-05 7.960179e-05 7.680815e-05
000150 e9 42 c2 38 e7 6b 4c 38 22 5e 1d 38 f9 68 2f 38
       9.263104e-05 4.8737882e-05 3.7519385e-05 4.1821015e-05
000160 40 ac 47 38 37 f1 db 37 38 a7 f3 37 99 2a a9 38
       4.7605718e-05 2.6219159e-05 2.9045725e-05 8.0664824e-05
000170 14 92 e9 38 97 10 32 38 99 6b 2f 38 40 5d f5 37
       0.00011137515 4.2453958e-05 4.182346e-05 2.9249699e-05
000180 f7 19 12 38 af 9e 8f 38 25 a0 ab 38 08 fb f5 38
       3.4833294e-05 6.8483285e-05 8.183745e-05 0.000117292686
000190 8c 99 62 38 62 e9 e6 38 17 1c 92 38 12 90 be 38
       5.40256e-05 0.000110107256 6.967055e-05 9.086741e-05
0001a0 96 f4 6f 38 50 e0 a2 38 75 25 62 38 ce 4a b4 38
       5.720983e-05 7.7665434e-05 5.3917483e-05 8.597002e-05
0001b0 b9 60 1f 38 60 c0 02 37 2e 74 8b 38 ec 53 78 38
       3.7998634e-05 7.793395e-06 6.649677e-05 5.9205966e-05
0001c0 c5 cd 6e 38 3c 4a f3 38 6c 7e 65 38 77 a7 43 38
       5.693526e-05 0.0001160097 5.4715594e-05 4.6647587e-05
0001d0 47 94 66 38 28 d7 07 38 40 8b 59 38 20 d2 57 38
       5.4974367e-05 3.2386888e-05 5.186652e-05 5.145569e-05
0001e0 4a 1f d9 37 c6 0c bc 38 c3 40 6b 38 f9 6a 2c 38
       2.5882986e-05 8.966918e-05 5.608868e-05 4.110762e-05
0001f0 78 16 9b 38 ec c4 75 38 3c 4a bf 38 44 77 79 38
       7.395161e-05 5.859595e-05 9.121417e-05 5.94773e-05

exp_avg f4 [16, 128]
000000 51 5a c1 37 fd b0 72 39 c6 b6 49 b7 77 8d 35 39
       2.304945e-05 0.00023144852 -1.2023089e-05 0.00017314205
000010 a2 fe 91 39 24 26 69 39 bb ce 0f 3a 6d 66 c0 b9
       0.0002784627 0.0002223482 0.00054858223 -0.00036697407
000020 74 46 46 39 d8 1a 1b 3a 2c c9 a8 39 e8 30 a3 39
       0.00018908997 0.0005916781 0.00032193342 0.0003112622
000030 ee 10 9a b9 ca d4 0a ba ee dc e3 39 2c b8 92 3a
       -0.00029385783 -0.000529599 0.0004346142 0.0011193804
000040 cb 42 76 39 5a 3d 45 3a 25 1b f9 b9 fe b9 48 ba
       0.0002348527 0.00075240957 -0.00047513205 -0.00076571095
000050 1d 52 23 39 ce ad 18 39 5a 61 ad 38 1a bb 70 39
       0.00015575481 0.00014560597 8.267416e-05 0.00022957884
000060 5f b0 e0 b9 3a cb c4 37 94 b3 91 39 9c 34 ac 39
       -0.00042856016 2.3459655e-05 0.0002779035 0.00032845594
000070 04 80 69 b9 0a 9e 4b 3a e1 08 85 39 57 b7 f4 38
       -0.00022268301 0.0007767385 0.00025374352 0.000116689764
000080 c5 b2 0b 3a 2a 0d a5 b8 76 ca a2 38 af 09 36 ba
       0.0005329068 -7.870265e-05 7.762473e-05 -0.0006944192
000090 5e 04 d9 39 7f fd 82 38 54 1e 44 37 8f 80 4e 3a
       0.0004139272 6.2461004e-05 1.1689572e-05 0.0007877433
0000a0 df 08 84 39 08 95 84 b8 6f ba 16 3a 9b a1 d7 39
       0.0002518361 -6.32201e-05 0.00057498267 0.000411284
0000b0 44 b3 09 b8 c6 3d f5 b8 04 ce 46 38 f9 75 f9 39
       -3.28303e-05 -0.000116940166 4.7398746e-05 0.00047580877
0000c0 dd 95 34 39 58 80 11 ba ea 76 6e 39 0f dd fd 39
       0.00017221966 -0.0005550436 0.00022741748 0.00048420622
0000d0 0a 99 1a b9 48 2d 77 b8 d8 18 0c 3a 49 4a ec b9
       -0.00014743596 -5.893156e-05 0.0005344278 -0.00045068774
0000e0 20 52 b2 39 38 53 c0 39 0d c6 50 39 eb 14 85 39
       0.00034011994 0.00036683097 0.00019910205 0.00025383322
0000f0 4b 9c d0 39 68 fb 0b 38 cb 07 94 3a 44 b5 a1 b8
       0.000397893 3.3374323e-05 0.0011293826 -7.7108416e-05
000100 ba ba 79 39 28 ea 4f 3a 62 ba 93 39 99 62 4f 3a
       0.00023816052 0.00079313153 0.0002817689 0.00079111155
000110 4e 0e f1 b9 0d 57 20 3a 05 4c 77 39 e4 80 54 38
       -0.0004597776 0.0006116487 0.00023584075 5.0664778e-05
000120 48 b0 52 3a b5 2e 26 3a 2c 45 f3 b9 f8 f8 bd 39
       0.0008037132 0.00063393574 -0.0004640011 0.00036234385
000130 11 fa 3e b9 3e 82 4f 39 3e 8d 2c 3a 22 11 5f b9
       -0.00018212969 0.00019789577 0.0006582326 -0.0002127332
000140 30 53 ba b7 66 9a 0c 3a 88 67 dc 39 ba 3a cd 38
       -2.2211665e-05 0.00053635833 0.00042038807 9.7861004e-05
000150 cc 28 00 39 06 9f a1 3a 58 a9 ca 38 95 90 01 39
       0.00012222229 0.0012330718 9.663653e-05 0.0001235626
000160 c2 40 37 39 1f 5d 89 38 7e ea 4f 3a d5 f0 6f b8
       0.00017476364 6.550014e-05 0.00079313654 -5.7206333e-05
000170 08 ad 39 39 eb 75 7b 3a 5e 1c a6 b8 ec 27 ad b8
       0.00017707434 0.0009592461 -7.9207806e-05 -8.256719e-05
000180 f8 69 90 b7 9b ff 4f 39 3b 32 b5 39 78 e2 ab 39
       -1.7215483e-05 0.00019836279 0.00034560435 0.00032784394
000190 92 69 3f 39 ed b6 8d 39 7e 6c a3 3a 16 bc 19 b9
       0.00018254507 0.00027029906 0.0012468246 -0.00014661285
0001a0 5a 4c 77 b9 c6 4e 5d 3a 86 16 e9 39 48 7f c5 b9
       -0.00023584199 0.0008442219 0.00044458004 -0.000376696
0001b0 b3 11 0b 3a 50 9a 19 b8 93 f0 8b 3a f8 98 e5 b9
       0.00053050666 -3.6621757e-05 0.0010676555 -0.00043792254
0001c0 12 e7 78 3a 0b 50 69 b8 a7 09 1e 3a 0a c6 2a 39
       0.00094948814 -5.5626075e-05 0.000602866 0.00016286239
0001d0 a2 da 0e b9 9d 75 1f b9 7a ae 84 b8 ef 69 2d ba
       -0.00013623622 -0.00015207236 -6.326749e-05 -0.00066152116
0001e0 15 35 de b7 42 af 11 3a 47 c7 90 39 36 b4 e8 38
       -2.648918e-05 0.00055574265 0.00027614294 0.00011096189
0001f0 12 20 83 38 15 56 8c b9 7f ed e0 39 f8 16 84 b8
       6.25254e-05 -0.00026767017 0.00042901558 -6.298529e-05
000200 ba b4 a1 39 b6 f8 6a 39 20 ac 16 b8 6a 88 60 b9
       0.00030842965 0.00022408631 -3.592309e-05 -0.00021413123
000210 7c 2b c9 b9 8f 24 f4 b9 11 03 00 ba 80 fa 5f 39
       -0.00038370106 -0.00046566545 -0.00048832694 0.00021360256
000220 86 66 9b b9 8f 95 a2 b9 b9 58 c4 b8 65 e4 d6 b9
       -0.0002964029 -0.00031010478 -9.362534e-05 -0.00040987428
000230 7b d5 c0 b8 a0 f9 cc b6 5d 29 9a ba 33 86 c8 ba
       -9.195037e-05 -6.108734e-06 -0.0011761595 -0.0015298784
000240 38 42 5e b9 fc 24 84 ba 54 f8 11 38 e8 fe 24 b8
       -0.00021196238 -0.0010081823 3.4801968e-05 -3.9338047e-05
000250 9d 28 a3 ba 2c 83 a4 b9 99 04 99 b8 ee 98 ba 38
       -0.0012448017 -0.00031378248 -7.296465e-05 8.8976565e-05
000260 92 de d4 b8 36 76 8f 39 60 9d 08 b9 54 71 7c ba
       -0.00010150405 0.0002736316 -0.00013028597 -0.00096299243
000270 a7 47 2a 3a 8c 9c ef 38 6a ac 16 b9 fa 54 a5 39
       0.00064956624 0.00011425567 -0.00014369344 0.00031534565
000280 31 1d 37 ba e2 f5 2a b9 82 6d 0b ba 70 9b 49 38
       -0.0006985246 -0.00016304062 -0.0005318747 4.8066897e-05
000290 c1 d8 2d b9 0c d2 9b 36 47 23 36 39 98 8c 0f ba
       -0.00016579313 4.6438126e-06 0.00017370014 -0.0005475967
0002a0 64 7c 42 b8 60 cd af b8 a0 df 2f ba 84 16 98 39
       -4.6369052e-05 -8.382904e-05 -0.0006709043 0.00029008475
0002b0 5f 18 96 b8 48 aa 82 b9 d6 1c 86 39 4c 09 90 b8
       -7.157097e-05 -0.00024922402 0.00025579956 -6.868187e-05
0002c0 78 db cd b8 a8 e8 ae 39 31 2c 07 b9 78 d4 5a ba
       -9.816041e-05 0.0003336121 -0.00012891066 -0.00083477003
0002d0 be 43 ac 39 be d3 11 39 04 75 46 ba 60 ca 55 b7
       0.00032856868 0.00013907158 -0.0007570537 -1.2742908e-05
0002e0 79 57 6d ba 04 65 d0 b9 22 d2 fa b9 8e a2 59 ba
       -0.0009053867 -0.00039748114 -0.00047840277 -0.00083021156
0002f0 15 23 61 b9 1b 0a 6e ba 32 21 c2 ba d4 18 1d b9
       -0.00021470741 -0.00090804853 -0.0014810918 -0.00014981936
000300 d0 5a cd b8 08 ef 46 ba eb 98 85 ba 10 50 54 ba
       -9.792077e-05 -0.0007588719 -0.0010192668 -0.00080990884
000310 16 34 24 39 93 f8 d2 b9 86 93 92 b9 b4 e8 22 38
       0.00015659662 -0.00040239524 -0.00027957204 3.884053e-05
000320 55 49 10 ba a5 d1 35 ba a6 07 24 ba 1b 74 9e 39
       -0.00055040914 -0.00069358415 -0.0006257243 0.00030222614
000330 63 cc c8 39 2e 6d 13 39 72 b6 b1 ba d2 b9 09 39
       0.00038299253 0.00014059685 -0.0013558401 0.00013134562
000340 32 9c 2c b9 fc 1b 9e b9 2c b5 b8 b8 93 3a 5e b9
       -0.00016461386 -0.00030156958 -8.8075496e-05 -0.0002119339
000350 c8 b6 c3 b8 ff 8e be b9 66 6b 47 ba 63 ce 97 b9
       -9.33237e-05 -0.00036346164 -0.0007607251 -0.00028954734
000360 14 cf a2 b8 b0 19 55 ba c4 ba 23 ba 09 d4 99 38
       -7.763333e-05 -0.0008129133 -0.0006245787 7.335103e-05
000370 a7 e1 2b 39 18 af 74 b9 9f d2 c5 b9 1e 82 f3 b8
       0.00016391893 -0.00023334881 -0.00037731693 -0.00011611379
000380 7b 42 19 ba 64 c9 8c 39 90 a6 e9 b9 a0 b4 3f 39
       -0.0005846393 0.0002685293 -0.00044565322 0.00018282467
000390 66 8a 22 39 6a a7 d6 b9 a2 48 a3 ba 6a 9e 65 b9
       0.00015501081 -0.00040941994 -0.0012457559 -0.00021898156
0003a0 88 44 fa b9 40 ae 06 ba 78 a4 db b9 ce 5c 69 39
       -0.00047734776 -0.00051376596 -0.00041893474 0.00022255184
0003b0 b2 55 95 ba 45 85 9a b9 fd 81 1a ba 1b f8 6a b9
       -0.0011393337 -0.00029472462 -0.00058940036 -0.00022408405
0003c0 7a f7 31 b9 72 c9 f1 b8 8a 47 5a ba 11 08 21 ba
       -0.00016972228 -0.000115292976 -0.00083267 -0.00061428646
0003d0 59 71 63 39 a6 0e aa b9 00 ee 90 37 34 e5 9e 39
       0.00021690632 -0.0003243584 1.7276965e-05 0.00030306878
0003e0 90 32 7b ba a7 e4 0c ba 68 f8 45 b9 fe 9d 24 b9
       -0.00095824245 -0.0005374648 -0.00018879923 -0.00015699115
0003f0 24 8a 47 b9 e6 37 84 b9 c9 53 f4 b9 85 d9 00 3a
       -0.0001902958 -0.0002521865 -0.0004660173 0.00049152254
