pred_yield/model/yield_model_regressor.pt (torch, 326767 bytes, 15 tensors)

FC1.0.weight f4 [128, 192]
-0.013265093 -0.003169982 -0.010936077 0.0070908167 -0.06149073 0.003025425 -0.031173907 -4.910047e-05
-1.3301786e-05 0.00063774275 0.00022997955 0.002868405 0.00048061679 -0.035044517 -0.017485118 0.003322536
-0.0032405595 -0.008651208 -0.05016871 3.7412957e-07 0.005666376 -0.001789375 -0.024445202 0.051802948
-0.003288353 0.02941608 -0.01952686 -0.007108823 -0.0021067145 -0.015325085 0.026752973 -0.014704686
0.015954992 0.024695167 -0.01764175 -0.017967602 -0.013818651 0.011025545 -0.000992394 0.012452951
0.018164696 0.0009702225 0.024421446 0.019676464 -0.0127544 -0.0021697404 0.022961916 -0.013677315
-0.018240068 -0.026536293 -0.0031457648 0.04081313 -0.004618334 -0.02680935 0.0116813425 0.012067762
0.00057085144 -0.018126974 0.013101574 -0.015647257 -0.020893326 -0.00036779477 0.005383404 0.0053826463
0.025728147 -0.02514513 0.044371497 0.029088685 0.0077914298 -0.00076842954 0.01174973 0.01040322
-0.0041155713 -0.023927046 -0.020277213 -0.048763428 0.035222795 0.009630684 0.015975941 0.016741125
-0.023010425 -0.014254465 -0.06267071 0.033190038 -0.018003626 0.002591055 0.0045483243 0.05743867
-0.0067384425 0.006697553 -0.031471 -0.0027304562 0.025178332 -0.011376141 -0.0031038385 -0.04087741
0.035451338 0.0072972304 -0.00012892083 7.625592e-06 5.303536e-05 -0.00064238743 -0.044917583 0.0013588438
-0.0009880159 0.00048736745 0.00070310524 -0.012308244 0.00038639564 -0.00054059125 -0.0004863424 -0.00035124877
-0.0077810106 0.0016127266 0.0020723324 0.0008755729 0.002080661 0.051810794 -0.0021999655 0.0003205919
-0.00084382837 0.0013466025 -0.027031923 -0.000958631 0.014983059 -0.00016962262 -0.0005090019 -0.011128798
0.00036611737 0.00050322176 -0.081587166 0.0067411107 -0.00085419737 -0.00028569467 0.0010410297 0.0034469005
-0.00050228025 -0.0012555694 -0.017421661 -0.0069897743 0.00086309836 0.0034925265 -0.00092414825 1.9717361e-05
0.001635738 -0.0010572474 0.00023490447 -0.0013929559 0.0027314015 0.00067899 -0.0025394843 0.08105458
0.011440611 0.0026662836 0.02049564 -0.006174445 0.047858328 -0.0006779823 0.047137976 -0.00032582635
0.0009881888 -0.051440928 0.0019608934 0.00030269547 0.0024292276 -0.022741646 -0.041542955 -0.003935402
-0.0015569404 -0.0011890547 0.0017959122 -0.0040639876 0.0052075246 -0.03291086 -2.6724265e-05 -0.0015444398
-0.00055587664 0.0011297278 0.00037787404 -0.053717937 -0.00025200192 0.0001610751 0.0001452767 0.00020620337
0.018800708 0.014385431 0.014432393 0.07821444 -0.0021025843 -0.0016144199 -0.0011107123 0.059711717
0.0014231851 -0.003139548 0.038051628 0.01976008 0.01600236 -0.0023520137 0.0019226839 -0.024840083
-0.016317919 -0.027974576 0.008770263 0.032259054 -0.001402886 -0.01684189 -0.008169406 0.015803425
0.039276093 -6.279838e-05 0.04977507 -0.0013151807 0.056128558 -0.03205243 -0.00065888575 -0.0011494602
-0.00078224315 -0.010113571 0.013504575 0.020180717 0.0141556505 0.033771377 -0.0014270694 0.018164564
-0.011073348 0.017094584 -0.03385613 -0.012168355 0.0040207156 -0.027866587 -0.029746708 -0.014930869
0.008888034 0.0039268197 0.0014138492 -0.009584586 0.0291413 -0.0071580545 -0.016489582 0.009991348
0.017791303 -0.0027477494 0.0062643867 -0.026280832 0.030239068 -8.537741e-06 0.029117974 -0.018059615
0.0060940585 0.011518467 0.00021189135 0.02401003 0.0381705 -0.020647552 -0.008076171 0.01391416
00000000: d555 59bc 79bf 4fbb 3b2d 33bc 155a e83b
00000010: b4dd 7bbd 3546 463b 6c60 ffbc 3af1 4db8
00000020: bc2a 5fb7 312e 273a aa26 7139 dafb 3b3b
00000030: 4bfb fb39 d78a 0fbd f33c 8fbc e7be 593b
00000040: 915f 54bb ccbd 0dbc b57d 4dbd fadb c834
00000050: 02ad b93b 7689 eaba 4e41 c8bc 542f 543d
00000060: 6981 57bb fef9 f03c cbf6 9fbc 21f1 e8bb
00000070: ce10 0abb 1116 7bbc 0d29 db3c eceb 70bc
00000080: 0bb4 823c 854d ca3c 6e85 90bc cb30 93bc
00000090: a067 62bc 7da4 343c 3813 82ba 7607 4c3c
000000a0: 21ce 943c 8856 7e3a 7c0f c83c 8930 a13c
000000b0: d5f7 50bc 3432 0ebb a11a bc3c d116 60bc
000000c0: 326c 95bc a462 d9bc 2d29 4ebb ab2b 273d
000000d0: 6555 97bb 489f dbbc 1a63 3f3c ddb7 453c
000000e0: 31a5 153a 057f 94bc fca7 563c ad2e 80bc
000000f0: 7b28 abbc 94d4 c0b9 4467 b03b e960 b03b
00000100: d6c3 d23c 29fd cdbc e3be 353d 654b ee3c
00000110: 404f ff3b 6f70 49ba f181 403c 4472 2a3c
00000120: eadb 86bb a702 c4bc 661c a6bc 29bc 47bd
00000130: c745 103d 04ca 1d3c fadf 823c af24 893c
00000140: 5c80 bcbc 8f8b 69bc 8059 80bd 47f2 073d
00000150: 577c 93bc b0ce 293b 1c0a 953b d044 6b3d
00000160: 27ce dcbb 2677 db3b bce7 00bd 74f1 32bb
00000170: ca42 ce3c fe62 3abc c569 4bbb 126f 27bd
00000180: 6c35 113d 9b1d ef3b ec2e 07b9 56df ff36
00000190: 4972 5e38 e465 28ba 80fb 37bd 3b1b b23a
000001a0: 5080 81ba 5a85 ff39 9850 383a 84a8 49bc
000001b0: 2595 ca39 77b6 0dba c6fb feb9 d027 b8b9
000001c0: d9f7 febb 2062 d33a f8cf 073b b486 653a
000001d0: b35b 083b 8e37 543d 4c2d 10bb 1e15 a839
000001e0: 5d34 5dba 7b80 b03a 0d72 ddbc a34c 7bba
000001f0: 817b 753c badc 31b9 8a6e 05ba 9055 36bc
00000200: 71f3 bf39 a4ea 033a 2c17 a7bd 89e4 dc3b
00000210: 37ec 5fba 4ac9 95b9 2973 883a 65e5 613b
00000220: 75ab 03ba eb91 a4ba dfb7 8ebc 7a0a e5bb
00000230: 8d41 623a dfe2 643b 8a42 72ba b666 a537
00000240: 4266 d63a 5693 8aba b050 7639 d893 b6ba
00000250: 5001 333b 3ffe 313a 7a6d 26bb f2ff a53d
00000260: 6771 3b3c d1bc 2e3b 79e6 a73c 0053 cabb
00000270: 1807 443d 9fba 31ba c013 413d acd3 aab9
00000280: 1d86 813a b9b3 52bd 5582 003b 19b3 9e39
00000290: ad33 1f3b b04c babc f228 2abd 8bf4 80bb
000002a0: 4012 ccba 0eda 9bba d064 eb3a 332b 85bb
000002b0: e2a3 aa3b 8acd 06bd ec2d e0b7 cd6e caba
000002c0: 40b8 11ba 6013 943a 651d c639 5707 5cbd
000002d0: 201f 84b9 45e6 2839 6b55 1839 4c38 5839
000002e0: f103 9a3c dfb0 6b3c d875 6c3c e42e a03d
000002f0: 83cb 09bb f19a d3ba 5295 91ba 4694 743d
00000300: 2b8a ba3a e0c0 4dbb 06dc 1b3d e4df a13c
00000310: 6217 833c 3e24 1abb 9102 fc3a 6e7d cbbc
00000320: 28ad 85bc f02a e5bc 26b1 0f3c 1222 043d
00000330: 0be1 b7ba 01f8 89bc f9d8 05bc 2f76 813c
00000340: f8df 203d a0b2 83b8 f2e0 4b3d 2462 acba
00000350: 0fe7 653d 6949 03bd 13b9 2cba 7ca9 96ba
00000360: 730f 4dba 64b3 25bc 4b42 5d3c 0852 a53c
00000370: 1aed 673c db53 0a3d 810c bbba dacd 943c
00000380: fd6c 35bc f109 8c3c baac 0abd c85d 47bc
00000390: 35c0 833b 7848 e4bc 5eaf f3bc 9ba0 74bc
000003a0: 1e9f 113c 8dac 803b e850 b93a ab08 1dbc
000003b0: bcb9 ee3c 1d8e eabb 2915 87bc c0b2 233c
000003c0: 11bf 913c 9613 34bb 7c45 cd3b e64a d7bc
000003d0: ecb7 f73c 523d 0fb7 d188 ee3c c2f1 93bc
000003e0: abb0 c73b f4b7 3c3c 272f 5e39 afb0 c43c
000003f0: ac58 1c3d 0e25 a9bc eb51 04bc 38f8 633c

FC1.0.bias f4 [128]
-0.040018253 -0.059960842 -0.014802128 -0.0358731 -0.031824343 -0.041719314 -0.10943175 -0.0036646815
-0.067418694 -0.020870939 -0.046316057 -0.06336105 -0.06609628 -0.06812334 -0.05456252 -0.088613816
-0.019235468 -0.13029581 -0.04774412 -0.06558103 -0.012391813 -0.10465431 -7.340165e-05 -0.013758607
-0.031610336 -0.052694637 -0.027168194 -0.0004456802 -0.031227183 -0.040891595 0.00017373142 -0.012386666
-0.076962784 -0.0882024 -0.062753096 -0.09180785 -0.069432065 -0.030901734 -0.10757422 -0.006010196
-0.079171084 -0.06464535 -0.025814356 -0.058438394 -0.09787444 -0.024026262 -0.01934096 -0.07711463
-0.02564268 -0.057571035 -0.10161196 -0.064660676 -0.074801564 -0.092167735 -0.09767576 -0.06964752
-0.110232346 -0.08313198 0.00039104788 -0.050980426 -0.12009254 -0.13861446 -0.011674353 -0.014349271
-0.07798903 -0.03860783 4.7349095e-05 -0.02348023 -0.061589297 -0.037026208 -0.031950638 -0.121254906
-0.020940578 -0.05624649 -0.058878362 -0.013880006 -0.05872278 -0.07847456 -0.03657021 -0.038809374
-0.05076643 -0.030271841 -0.008455061 -0.0708662 -0.058610953 -0.02476687 -0.040513054 -0.012557827
-0.047862045 -0.071074106 -0.05989864 -0.039413348 -0.0031927691 -0.08255283 -0.10056517 -0.02169856
-0.042674556 -0.04426564 -0.09991886 -0.0894492 -0.050690286 -0.040736984 -0.016393343 -0.06996813
-0.03307887 -0.06086645 -0.050818842 -0.06855515 -0.05472653 -0.10973488 -0.09050829 -6.5058746e-05
-0.049516343 -0.10533976 -0.080603376 -0.0007367126 -0.07916304 -0.014085727 -0.07600045 -0.042272188
-0.04417759 -0.11461009 -0.0732709 -0.054355737 -0.05636879 -1.0969166e-05 -0.018483512 0.0002008545
00000000: 2eea 23bd 8099 75bd a084 72bc acef 12bd
00000010: 3e5a 02bd dfe1 2abd c11d e0bd 272b 70bb
00000020: d012 8abd 88f9 aabc e8b5 3dbd 70c3 81bd
00000030: 7d5d 87bd 4084 8bbd f37c 5fbd 297b b5bd
00000040: b393 9dbc 446c 05be 578f 43bd 594f 86bd
00000050: 0807 4bbc 0055 d6bd 36ef 99b8 c86b 61bc
00000060: d779 01bd 55d6 57bd d58f debc 2faa e9b9
00000070: 26d0 ffbc f27d 27bd ac2b 3639 71f1 4abc
00000080: aa9e 9dbd 76a3 b4bd b284 80bd c105 bcbd
00000090: 6632 8ebd a225 fdbc df4f dcbd 2ef1 c4bb
000000a0: 7324 a2bd c864 84bd a178 d3bc 195d 6fbd
000000b0: 6572 c8bd b9d2 c4bc ef70 9ebc 46ee 9dbd
000000c0: 9910 d2bc 9bcf 6bbd ee19 d0bd d16c 84bd
000000d0: 9031 99bd 70c2 bcbd 3b0a c8bd 5ca3 8ebd
000000e0: 7fc1 e1bd 1941 aabd 8f05 cd39 dad0 50bd
000000f0: 14f3 f5bd f3f0 0dbe c945 3fbc 3419 6bbc
00000100: b6b8 9fbd 3e23 1ebd b498 4638 9c59 c0bc
00000110: 0f45 7cbd cba8 17bd acde 02bd 7e54 f8bd
00000120: 938b abbc b862 66bd 702a 71bd f768 63bc
00000130: 4c87 70bd 45b7 a0bd a5ca 15bd 94f6 1ebd
00000140: 76f0 4fbd a7fc f7bc 1987 0abc 4c22 91bd
00000150: 0a12 70bd e4e3 cabc 04f1 25bd 58bf 4dbc
00000160: fe0a 44bd 4d8f 91bd 4758 75bd e46f 21bd
00000170: c73d 51bb 7511 a9bd 1df5 cdbd 2ec1 b1bc
00000180: 84cb 2ebd e34f 35bd 42a2 ccbd 2431 b7bd
00000190: 9ea0 4fbd d3db 26bd 554b 86bc 734b 8fbd
000001a0: b67d 07bd 194f 79bd 6b27 50bd a466 8cbd
000001b0: ed28 60bd aebc e0bd 695c b9bd 2670 88b8
000001c0: a6d1 4abd 5fbc d7bd 6213 a5bd f21f 41ba
000001d0: 3b20 a2bd d2c7 66bc 20a6 9bbd 9a25 2dbd
000001e0: 90f3 34bd b2b8 eabd 0e0f 96bd 1fa4 5ebd
000001f0: f6e2 66bd 3608 38b7 bc6a 97bc 789c 5239

FC2.0.weight f4 [16, 128]
-0.04759981 -0.0964491 -0.049794044 -0.17525908 -0.20820008 -0.006699495 -0.07786501 -0.11562736
-0.11889819 -0.111986436 -0.20962244 -0.21506122 -0.15977488 0.020459175 0.076518156 -0.046752814
-0.11520229 0.018766984 0.00034621728 -0.05976843 0.050539646 -0.12852332 -3.7668186e-05 -0.003355279
0.15618953 0.11229811 -0.0009578352 0.05686125 0.07038906 -0.024721047 0.052356433 -0.10048804
-0.20742984 -0.062473502 0.11627127 -0.06977014 0.01448205 -0.1576596 0.014240656 0.1282335
0.06332123 -0.12010426 -0.014874652 -0.13940097 -0.034888204 -0.0696919 -0.008927775 0.027270878
-0.056442708 -0.19259898 -0.11629263 -0.022932326 -0.07378471 -0.0019597625 -0.10590093 0.043232128
0.0005895544 -0.089937724 0.034436375 -0.12642775 -0.22728568 -0.006677223 -0.13612683 -0.17366688
-0.0767768 -0.118975796 0.00012826423 -0.2231558 -0.17053339 -0.043475952 0.06714534 -0.00513309
0.081375554 -0.21974473 -0.23485634 -0.10127779 0.013361685 -0.06124194 0.03810705 0.13292323
0.036629934 -0.124482244 -0.053048585 0.015499116 -0.038619693 0.06988245 0.07511564 0.010073352
-0.13613936 0.06500341 -0.23422396 -0.00082454405 -0.14995652 0.039339744 0.033119343 0.07998542
-0.11592061 -0.010968135 0.0015150193 -0.21990073 0.0026210935 0.14288804 0.00028641956 -0.10303351
0.01015677 -0.18594305 -0.21656819 -0.055245504 -0.24221016 -0.14791454 -0.083237305 0.00012207485
0.006192968 0.046270087 -0.10924198 -0.002582434 -0.076361604 0.06220229 -0.07735591 0.030879397
-0.058232293 -0.16000758 0.00015940919 0.031685226 0.0029148653 -9.436847e-05 0.011498133 0.029419016
-0.048065867 -0.01701611 -0.104087695 -0.10789899 -0.0064598797 -0.06956194 -0.036345202 -0.035921838
-0.088188075 -0.07454907 -0.19587366 -0.06691067 -0.08069841 0.069855504 0.07998089 -0.067063
-0.069771364 0.038326353 -1.26592295e-05 -0.00053637277 0.029279942 -0.07354132 2.0740645e-05 -0.047935124
0.12032403 0.03575127 0.0021381194 0.05090966 0.04253649 -0.040058378 -0.0008035562 -0.115040526
-0.050193872 -0.06463637 0.090027966 -0.020506572 0.04950189 -0.010047607 0.03930786 0.051587094
0.055328544 -0.10734009 -0.017178867 -0.054616183 -0.16576818 -0.050607704 -0.032971602 0.054017078
-0.113390915 -0.086682215 -0.05576835 -0.06326444 -0.0757596 -0.02438471 -0.12157201 0.11263181
0.0018110855 -0.07338975 0.059739973 -0.19291006 -0.17406806 -0.0432605 -0.034188323 -0.008072221
-0.07980534 -0.14824823 2.421156e-05 -0.041053623 -0.12447024 -0.13195078 0.055392407 -0.075465776
0.0001952102 -0.09622164 -0.11212017 -0.052401308 0.05623316 0.0025528294 0.045473207 0.12557712
0.014736472 -0.091848426 -0.02714706 0.0978964 -0.11654896 0.11327059 0.06659296 0.07433845
-0.01746984 0.039542586 -0.038474467 -0.017382612 -0.012401072 0.07241089 0.03809495 0.028799554
-0.03753916 -0.027150832 0.046809398 -0.009036454 0.05701949 0.18003196 -0.00092343765 -0.06593792
0.04632392 -0.033431944 -0.009902396 -0.1658977 -0.06924691 -0.12522164 -0.10286341 3.330514e-07
0.0673412 0.06548812 -0.089663915 0.0008249827 -0.13153706 0.036855776 -0.10147429 0.057411958
-0.07396122 -0.10175871 -0.08747568 0.20593275 0.012287184 -1.7008668e-05 0.00023744816 0.07483013
00000000: 05f8 42bd 1b87 c5bd d7f4 4bbd 1e77 33be
00000010: 6732 55be 7087 dbbb b177 9fbd 0ace ecbd
00000020: e580 f3bd 2559 e5bd 44a7 56be 0239 5cbe
00000030: 079c 23be 009a a73c 8db5 9c3d e17f 3fbd
00000040: 2eef ebbd 38bd 993c 7f84 b539 becf 74bd
00000050: a902 4f3d 9e9b 03be e8fd 1db8 3ee4 5bbb
00000060: 26f0 1f3e 8dfc e53d 3b17 7bba 58e7 683d
00000070: 2428 903d cb83 cabc b373 563d accc cdbd
00000080: 7d68 54be 37e4 7fbd a21f ee3d a6e3 8ebd
00000090: 1f46 6d3c 8571 21be a451 693c a54f 033e
000000a0: 90ae 813d 39f9 f5bd d0b4 73bc 21bf 0ebe
000000b0: efe6 0ebd a0ba 8ebd cd45 12bc 2d67 df3c
000000c0: 7830 67bd ab38 45be d52a eebd 93dc bbbc
000000d0: 701c 97bd 5c6f 00bb 96e2 d8bd 2c14 313d
000000e0: 538c 1a3a 4531 b8bd 280d 0d3d 4776 01be
000000f0: 94bd 68be 9bcc dabb d564 0bbe bbd5 31be
00000100: 283d 9dbd 95a9 f3bd ab7e 0639 f482 64be
00000110: 4ea0 2ebe d713 32bd 7f83 893d 7b33 a8bb
00000120: 3aa8 a63d c304 61be 2e7e 70be bb6a cfbd
00000130: f8ea 5a3c d4d8 7abd 2316 1c3d 071d 083e
00000140: 4509 163d 8cf0 febd 7949 59bd 01f0 7d3c
00000150: af2f 1ebd 881e 8f3d 3bd6 993d b30a 253c
00000160: 1e68 0bbe 8220 853d 68d8 6fbe 3726 58ba
00000170: 348e 19be b622 213d 26a8 073d 65cf a33d
00000180: c967 edbd b1b3 33bc 9d93 c63a a82d 61be
00000190: a7c6 2b3b 3e51 123e 952a 9639 3c03 d3bd
000001a0: 9568 263c db67 3ebe 0dc4 5dbe 1c49 62bd
000001b0: f105 78be e976 17be 5278 aabd 3801 0039
000001c0: 62ee ca3b b485 3d3d 42ba dfbd 0e3e 29bb
000001d0: 7963 9cbd d4c7 7e3d c66c 9ebd caf6 fc3c
000001e0: fc84 6ebd 07d9 23be 1427 2739 5ec8 013d
000001f0: 5307 3f3b b0e7 c5b8 aa62 3c3c 2600 f13c
00000200: b7e0 44bd 5e65 8bbc ee2b d5bd 25fa dcbd
00000210: 66ad d3bb 7e76 8ebd b5de 14bd c722 13bd
00000220: f39b b4bd 2fad 98bd 1b93 48be 7608 89bd
00000230: 3545 a5bd 6710 8f3d 05cd a33d 5358 89bd
00000240: 4ae4 8ebd 18fc 1c3d fa62 54b7 5e9b 0cba
00000250: 7ddc ef3c d59c 96bd 32fc ad37 9f57 44bd
00000260: 726c f63d ec6f 123d b11f 0c3b a686 503d
00000270: be3a 2e3d 4114 24bd bea5 52ba 5e9a ebbd
00000280: 1798 4dbd 1360 84bd 9560 b83d 66fd a7bc
00000290: 7ec2 4a3d b89e 24bc 4701 213d fd4c 533d
000002a0: 2fa0 623d 1fd5 dbbd b2ba 8cbc 38b5 5fbd
000002b0: 22bf 29be 064a 4fbd 3b0d 07bd 0341 5d3d
000002c0: 7f39 e8bd 7286 b1bd 5a6d 64bd c990 81bd
000002d0: d927 9bbd 71c2 c7bc bffa f8bd 82ab e63d
000002e0: f261 ed3a 5e4d 96bd e7b1 743d 378a 45be
000002f0: e63e 32be ec31 31bd 0e09 0cbd 5941 04bc
00000300: fb70 a3bd 62ce 17be ee19 cb37 d827 28bd
00000310: 41ea febd 1b1e 07be 26e3 623d cd8d 9abd
00000320: 57b1 4c39 da0f c5bd 429f e5bd c1a2 56bd
00000330: be54 663d 5f4d 273b 1d42 3a3d 4a97 003e
00000340: 3e71 713c 071b bcbd 8363 debc e87d c83d
00000350: 39b1 eebd 69fa e73d e461 883d c23e 983d
00000360: e91c 8fbc 68f7 213d 6797 1dbd fb65 8ebc
00000370: de2d 4bbc 294c 943d 7309 1c3d 0bed eb3c
00000380: aac2 19bd 6c6b debc 36bb 3f3d a30d 14bc
00000390: 458d 693d 4c5a 383e da12 72ba 760a 87bd
000003a0: 27be 3d3d efef 08bd a93d 22bc 16e1 29be
000003b0: 53d1 8dbd 1a3a 00be 0daa d2bd 3cce b234
000003c0: 2fea 893d a31e 863d b7a1 b7bd a743 583a
000003d0: a7b1 06be 15f6 163d c1d1 cfbd cd28 6b3d
000003e0: fb78 97bd df66 d0bd 7326 b3bd 09e0 523e
000003f0: 2f50 493c d6ad 8eb7 81fb 7839 8a40 993d

FC2.0.bias f4 [16]
0.0770335 0.060142603 0.08112786 0.07966616 0.030296814 0.067933716 0.06117662 0.083663836
0.02697335 0.019051662 0.029827483 0.020606507 0.08199849 0.028066644 0.017728204 0.016232504
00000000: bdc3 9d3d 1758 763d 5d26 a63d 0328 a33d
00000010: 0631 f83c d520 8b3d 5694 7a3d f257 ab3d
00000020: 37f7 dc3c 3b12 9c3c c458 f43c face a83c
00000030: d3ee a73d 05ec e53c bd3a 913c 07fa 843c

last_layer.weight f4 [1, 16]
-1.9367244 -1.6351963 -2.3627076 -2.0758522 1.6510892 -1.5945661 -1.5830255 -2.2003317
1.5941001 1.393049 1.8111008 1.5094721 -2.009229 1.6782191 1.4085838 1.3295811
00000000: 96e6 f7bf 1d4e d1bf 9a36 17c0 c3da 04c0
00000010: e456 d33f be1a ccbf 94a0 cabf 3cd2 0cc0
00000020: 790b cc3f 6e4f b23f 27d2 e73f 6236 c13f
00000030: 3597 00c0 e2cf d63f 794c b43f b72f aa3f

exp_avg f4 [128, 192]
-2.703611e-05 -9.114699e-05 -7.967606e-05 -2.6271851e-05 1.6546547e-06 4.4727976e-06 2.4065997e-05 -0.00013812154
4.193715e-05 5.0489234e-05 4.266717e-06 4.9715185e-05 -7.2996736e-05 -6.737371e-05 -8.64576e-05 -5.7839894e-05
-1.5332726e-05 0.000116027244 7.197124e-05 4.373808e-05 0.00010844159 -4.923754e-05 0.000120120596 -5.5906625e-05
4.656795e-05 1.4615823e-05 -0.00011701679 -7.5797776e-05 -0.00010681391 7.797433e-05 3.0123114e-05 -8.074104e-05
-5.9259055e-05 -3.2374865e-05 0.00010986719 -5.644481e-05 -6.046383e-05 7.8153025e-05 -0.000112802816 -1.016609e-05
1.940275e-05 6.839811e-05 -2.1487185e-06 6.4317355e-05 -4.7752437e-06 -9.290262e-05 -6.189734e-05 4.8534526e-05
9.524763e-05 5.1573363e-05 4.54843e-06 -6.0793165e-05 4.3361633e-05 -3.8040656e-05 -6.760865e-05 3.7300186e-05
6.849981e-05 -6.133813e-05 7.7262155e-07 0.00013205268 -3.879711e-05 9.8842465e-05 3.9361974e-05 -5.9468523e-05
-6.430437e-05 7.655124e-05 7.693094e-05 -4.1927946e-05 5.2512678e-05 4.637265e-05 7.4126e-05 2.8629657e-07
0.00012683422 8.391828e-05 8.523658e-06 -2.6058213e-05 1.741589e-05 -6.470466e-06 -5.851985e-05 -3.646994e-05
5.501354e-06 4.745249e-05 3.8317623e-05 -3.0178704e-05 -2.5845082e-05 -7.2454684e-05 2.4285666e-05 4.4361434e-05
6.577248e-05 -2.6898102e-05 -5.390021e-05 0.00010672995 1.2802626e-05 -5.875087e-05 2.382127e-05 -0.0001051441
5.2369207e-05 1.0075249e-05 -3.6413978e-06 1.8973757e-05 6.70868e-05 2.8961767e-05 -2.8091732e-05 2.7652546e-05
-2.3788014e-05 1.632326e-05 2.235044e-05 -2.7953576e-05 9.580299e-05 -4.1065367e-05 -6.59569e-05 3.647753e-05
9.023448e-06 6.0946168e-05 1.4619501e-05 -1.5392887e-06 3.542212e-05 5.8373484e-05 -3.3515833e-05 4.7883088e-05
2.6084206e-05 1.8018864e-05 1.5330095e-05 -2.6288153e-05 -2.162715e-05 8.549908e-06 1.1561102e-05 -1.9135645e-05
-4.818753e-05 -9.824454e-07 4.4903634e-05 -3.3816123e-05 -3.2177526e-05 -2.6158645e-05 4.0302773e-05 1.2673451e-05
-1.5853091e-05 3.5511147e-07 5.3461454e-06 5.5890054e-05 3.4798628e-05 -3.5969822e-06 1.8741968e-05 -5.8742773e-07
9.140458e-06 4.681535e-05 -2.9766192e-05 3.053905e-05 1.2370872e-05 6.5123146e-05 -3.6247864e-05 -1.3876385e-05
2.5871384e-05 5.8318758e-05 -3.6692523e-05 -1.204113e-05 -3.9784918e-05 -4.56468e-05 -3.3804423e-05 -2.0129983e-05
-6.1408806e-05 -2.1419011e-05 -2.2800896e-05 1.1549051e-05 -2.2245638e-05 -2.1054931e-05 -3.7343063e-05 1.06558045e-05
9.963527e-07 -9.123498e-06 6.93737e-05 8.256083e-05 -2.6808804e-05 9.210886e-06 3.70787e-05 1.1207529e-05
-5.758658e-05 5.5860048e-05 3.5716836e-05 -3.3836444e-05 -2.8375864e-05 -6.0635045e-07 -1.1854034e-05 -3.550809e-05
-3.6013196e-05 1.4336646e-05 -1.1929907e-05 8.778533e-06 -3.661503e-05 9.57657e-06 -1.3587491e-05 -1.9687035e-05
-9.114799e-06 5.3176e-06 -1.7026323e-05 3.1273506e-05 -2.6706852e-05 -1.9585817e-05 -5.24317e-06 5.6933072e-06
1.8522833e-05 6.241673e-05 2.085807e-05 -1.865806e-05 4.398775e-05 -2.9787725e-05 -0.00017662387 6.3311425e-05
-4.9009348e-05 0.000117707285 -2.0117399e-05 4.1381656e-05 -7.7961226e-07 -4.5427416e-05 2.8391998e-05 -1.1356502e-07
2.0112471e-05 3.36373e-05 3.3728265e-06 -1.2367859e-05 5.6046727e-05 -1.7761464e-05 -2.6204001e-05 -5.359293e-05
-3.6543352e-06 5.7870384e-05 1.7660035e-05 5.9087874e-05 -1.1364252e-06 1.1978508e-05 -2.6150155e-05 -1.3029329e-05
-6.741708e-05 -1.973632e-05 -1.1706262e-05 3.3019227e-05 7.982299e-05 -4.204993e-05 4.456744e-05 4.81044e-05
6.5902525e-05 -3.6308673e-05 2.3109007e-05 -7.3362594e-06 7.049311e-05 -6.386015e-05 -6.7455854e-05 1.9213667e-05
-5.6890003e-06 -3.2366977e-06 -1.9134932e-05 -2.4890844e-05 0.00012808605 6.425005e-05 -5.7312274e-05 0.000118783995
00000000: 9bcb e2b7 2b26 bfb8 c217 a7b8 5f62 dcb7
00000010: 8115 de35 0a15 9636 56e1 c937 b8d4 10b9
00000020: ace5 2f38 67c4 5338 d22a 8f36 4685 5038
00000030: d315 99b8 fc4a 8db8 9250 b5b8 1d99 72b8
00000040: c79e 80b7 a753 f338 44ef 9638 6873 3738
00000050: 236b e338 6884 4eb8 41e9 fb38 487d 6ab8
00000060: f551 4338 7b36 7537 e966 f5b8 9ff5 9eb8
00000070: 4801 e0b8 2686 a338 e5b0 fc37 8453 a9b8
00000080: ed8c 78b8 3fca 07b8 8068 e638 27bf 6cb8
00000090: 8b9a 7db8 16e6 a338 8d90 ecb8 068f 2ab7
000000a0: 17c3 a237 f570 8f38 b432 10b6 1ee2 8638
000000b0: 083b a0b6 b7d4 c2b8 e2ce 81b8 8d91 4b38
000000c0: afbf c738 7a50 5838 b79e 9836 2afc 7eb8
000000d0: 33df 3538 d88d 1fb8 1ec9 8db8 c572 1c38
000000e0: 8ea7 8f38 a8a2 80b8 2666 4f35 9f77 0a39
000000f0: 14ba 22b8 a549 cf38 9918 2538 d76d 79b8
00000100: 25db 86b8 228a a038 fc55 a138 cadb 2fb8
00000110: 0f41 5c38 4180 4238 1874 9b38 4db4 9934
00000120: cdfe 0439 49fd af38 d500 0f37 9697 dab7
00000130: 5718 9237 e11c d9b6 3673 75b8 4df7 18b8
00000140: 4598 b836 b907 4738 3cb7 2038 4628 fdb7
00000150: e4cd d8b7 d0f2 97b8 12b9 cb37 ba10 3a38
00000160: 55ef 8938 3ca3 e1b7 e912 62b8 35d4 df38
00000170: dcca 5637 446b 76b8 cad3 c737 cf80 dcb8
00000180: 02a7 5b38 dd08 2937 bd5e 74b6 d529 9f37
00000190: f4b0 8c38 ecf2 f237 89a6 ebb7 64f7 e737
000001a0: 5f8c c7b7 efed 8837 347d bb37 d97d eab7
000001b0: d7e9 c838 9a3d 2cb8 5752 8ab8 73ff 1838
000001c0: 6a63 1737 73a0 7f38 4746 7537 8f99 ceb5
000001d0: 3692 1438 0dd6 7438 5a93 0cb8 13d6 4838
000001e0: 68cf da37 3727 9737 2199 8037 6185 dcb7
000001f0: f36b b5b7 9371 0f37 8ef6 4137 7c85 a0b7
00000200: f71c 4ab8 91dc 83b5 e956 3c38 c9d5 0db8
00000210: 5bf6 06b8 436f dbb7 c60a 2938 0fa0 5437
00000220: 41fc 84b7 26a6 be34 0a63 b336 7d6b 6a38
00000230: bef4 1138 af63 71b6 1238 9d37 baaf 1db5
00000240: f859 1937 995b 4438 69b2 f9b7 0e17 0038
00000250: 7e8c 4f37 b992 8838 d908 18b8 9fce 68b7
00000260: 6006 d937 4a9b 7438 4ce6 19b8 4204 4ab7
00000270: bbde 26b8 e174 3fb8 39c9 0db8 cfdc a8b7
00000280: 9ac8 80b8 faac b3b7 8d44 bfb7 ccc2 4137
00000290: 259c bab7 1f9f b0b7 cfa0 1cb8 55c6 3237
000002a0: 6bba 8535 2011 19b7 b97c 9138 8224 ad38
000002b0: 78e3 e0b7 7488 1a37 f384 1b38 f807 3c37
000002c0: 1f89 71b8 454b 6a38 a9ce 1538 9beb 0db8
000002d0: b408 eeb7 16c4 22b5 b0e0 46b7 85ee 14b8
000002e0: e00c 17b8 6d87 7037 8f26 48b7 8347 1337
000002f0: 1793 19b8 0eab 2037 d4f5 63b7 9625 a5b7
00000300: c3eb 18b7 d66d b236 c0d3 8eb7 ac2b 0338
00000310: 8708 e0b7 394c a4b7 7dee afb6 2309 bf36
00000320: 7b61 9b37 bae5 8238 5df8 ae37 e183 9cb7
00000330: 7d7f 3838 a7e0 f9b7 1c34 39b9 10c6 8438
00000340: 638f 4db8 9ed9 f638 c9c1 a8b7 3791 2d38
00000350: 8c46 51b5 5189 3eb8 5a2b ee37 08e1 f3b3
00000360: 34b7 a837 c715 0d38 b858 6236 8d7f 4fb7
00000370: b713 6b38 74fe 94b7 aad0 dbb7 f8c8 60b8
00000380: 003d 75b6 dab9 7238 a324 9437 1fd5 7738
00000390: 4687 98b5 4df7 4837 085d dbb7 8b98 5ab7
000003a0: 4562 8db8 6d8f a5b7 0366 44b7 207e 0a38
000003b0: a466 a738 c55e 30b8 eded 3a38 b5c3 4938
000003c0: 2635 8a38 244a 18b8 37da c137 fd29 f6b6
000003d0: b3d5 9338 a8ec 85b8 1677 8db8 092d a137
000003e0: 24e4 beb6 0b36 59b6 f483 a0b7 aecc d0b7
000003f0: d64e 0639 fcbd 8638 9662 70b8 ac1b f938

exp_avg_sq f4 [128, 192]
4.0547803e-08 1.0156328e-07 6.4118446e-08 6.334202e-08 3.4211194e-08 4.3968424e-08 4.5056968e-08 6.062535e-08
4.5488605e-08 4.800948e-08 5.1032615e-08 7.735519e-08 9.378582e-08 5.2923713e-08 6.488254e-08 5.0592195e-08
4.888028e-08 5.550996e-08 6.922956e-08 6.576432e-08 5.7734105e-08 7.88651e-08 6.691718e-08 5.1209366e-08
4.8650485e-08 5.3731572e-08 6.226486e-08 8.475254e-08 5.383765e-08 7.24209e-08 5.668655e-08 6.509079e-08
5.2524303e-08 6.033366e-08 7.231276e-08 9.810437e-08 5.629963e-08 7.237355e-08 7.021067e-08 6.0761764e-08
5.280644e-08 7.2160425e-08 4.9496766e-08 6.083486e-08 7.416276e-08 5.980455e-08 5.405561e-08 5.9466608e-08
7.344865e-08 7.2251694e-08 8.134568e-08 4.9625832e-08 6.8250124e-08 5.5695356e-08 6.580493e-08 6.372064e-08
6.249739e-08 9.70001e-08 7.777644e-08 8.4418204e-08 6.9755025e-08 9.491059e-08 7.223043e-08 5.9635354e-08
7.616424e-08 5.9337143e-08 6.6294476e-08 7.856967e-08 8.302367e-08 6.732311e-08 5.391042e-08 6.948271e-08
7.539565e-08 8.329227e-08 7.911685e-08 6.407637e-08 8.41545e-08 8.322244e-08 5.5953002e-08 5.5022813e-08
9.680567e-08 7.109298e-08 7.0580356e-08 6.4994694e-08 7.383741e-08 7.4992876e-08 8.418529e-08 9.29808e-08
7.2632915e-08 8.422059e-08 6.046647e-08 8.177948e-08 1.01052976e-07 7.08117e-08 6.782771e-08 8.925938e-08
9.134069e-08 8.7057934e-08 7.0877886e-09 4.345593e-08 1.1545211e-08 3.4759847e-08 5.3844724e-09 4.0094497e-09
1.052775e-08 3.582974e-08 1.5864726e-08 1.4279234e-08 3.9236998e-08 1.1208041e-08 1.851887e-08 1.7588306e-08
1.3716659e-08 1.038025e-08 3.767318e-09 1.40405545e-08 1.5639653e-08 3.9312308e-08 1.0428921e-08 1.9449125e-08
2.8456446e-08 8.993532e-09 5.4594866e-09 1.6174642e-08 1.8429306e-08 8.9208605e-09 1.0903309e-08 7.0497674e-09
1.6973168e-08 1.3048632e-08 1.0161537e-08 1.5018752e-08 1.4031703e-08 1.0061583e-08 1.7231969e-08 1.0912401e-08
1.1821403e-08 1.1574655e-08 8.996038e-09 1.8858126e-08 3.7782083e-08 6.690337e-09 1.401277e-08 2.5923674e-08
1.1442924e-08 1.2582451e-08 1.180465e-08 2.4643954e-08 1.0010869e-08 1.776574e-08 1.2959605e-08 7.569638e-09
9.533579e-09 1.7898833e-08 1.0015221e-08 1.5676397e-08 3.0395864e-08 1.6424282e-08 1.0744005e-08 5.923988e-09
2.1572957e-08 9.147131e-09 9.202095e-09 1.5995694e-08 5.8397354e-09 8.444396e-09 1.1081446e-08 7.0779294e-09
1.359419e-08 1.0250936e-08 1.6076397e-08 1.9250574e-08 1.3918622e-08 1.0122267e-08 2.478667e-08 2.281758e-08
1.2373788e-08 1.4179609e-08 1.3925241e-08 2.1408818e-08 8.511232e-09 6.097847e-09 1.181864e-08 2.3277494e-08
1.241378e-08 9.661918e-09 1.490882e-08 1.922734e-08 2.0972793e-08 1.29594895e-08 1.4431813e-08 9.631643e-09
3.3274524e-08 8.8288424e-08 5.2955638e-08 6.182681e-08 3.61583e-08 3.015083e-08 2.5764258e-08 7.935196e-08
4.5932943e-08 4.5300506e-08 6.1902796e-08 6.756935e-08 6.673466e-08 4.9028728e-08 5.942696e-08 4.8385097e-08
4.321875e-08 4.5482047e-08 3.8022307e-08 5.7427147e-08 5.092422e-08 5.533816e-08 6.921405e-08 6.323243e-08
5.1278157e-08 5.329683e-08 5.21395e-08 7.416159e-08 5.061354e-08 4.1019003e-08 5.155685e-08 5.902582e-08
4.7672838e-08 6.037822e-08 6.0391685e-08 8.8389484e-08 8.709851e-08 7.958246e-08 5.004105e-08 5.560947e-08
5.379432e-08 4.259369e-08 5.9374752e-08 4.325749e-08 9.772586e-08 6.608125e-08 5.3454883e-08 4.6631857e-08
7.425772e-08 5.3054052e-08 6.753142e-08 6.702408e-08 6.305765e-08 7.476514e-08 6.990988e-08 6.181845e-08
8.0529105e-08 9.3166086e-08 7.361054e-08 7.345531e-08 8.069133e-08 7.698403e-08 7.1177794e-08 6.148483e-08
00000000: c826 2e33 011b da33 7db1 8933 a506 8833
00000010: 9bef 1233 cbd7 3c33 a984 4133 2331 8233
00000020: 405f 4333 fb32 4e33 f42e 5b33 771e a633
00000030: 4d67 c933 3d4e 6333 8e55 8b33 b54a 5933
00000040: 70f0 5133 d969 6e33 5aab 9433 513a 8d33
00000050: 52f7 7733 8c5c a933 1cb4 8f33 4bf1 5b33
00000060: c6f3 5033 7dc6 6633 78b6 8533 3401 b633
00000070: 1f3b 6733 d085 9b33 8577 7333 0ac8 8b33
00000080: 1597 6133 c890 8133 5c4a 9b33 73ad d233
00000090: 19ce 7133 c86b 9b33 b9c6 9633 227c 8233
000000a0: 4bcd 6233 9df6 9a33 4596 5433 51a4 8233
000000b0: 6943 9f33 e66d 8033 c62a 6833 3a68 7f33
000000c0: d3ba 9d33 ca28 9b33 43b0 ae33 2e24 5533
000000d0: e790 9233 b135 6f33 a550 8d33 cbd6 8833
000000e0: 4e36 8633 5e4e d033 0d06 a733 6649 b533
000000f0: 3bcc 9533 a6d1 cb33 191d 9b33 e210 8033
00000100: bc8f a333 e1d9 7e33 c65d 8e33 22ba a833
00000110: bf4a b233 4593 9033 228b 6733 8636 9533
00000120: 32e9 a133 69de b233 f3e6 a933 5b9a 8933
00000130: 6db8 b433 05b8 b233 fa50 7033 3952 6c33
00000140: 7be3 cf33 c7ab 9833 f691 9733 3693 8b33
00000150: 8c90 9e33 c50b a133 5ac9 b433 bcac c733
00000160: 5efa 9b33 c2dc b433 cbd9 8133 bf9e af33
00000170: 7602 d933 2511 9833 aea8 9133 ddae bf33
00000180: 1327 c433 9bf4 ba33 d988 f331 4da4 3a33
00000190: 6058 4632 db4a 1533 5202 b931 7ec3 8931
000001a0: 89dd 3432 37e3 1933 e746 8832 bc50 7532
000001b0: 8985 2833 7c8d 4032 6d13 9f32 1815 9732
000001c0: 81a6 6b32 d354 3232 ae71 8131 0337 7132
000001d0: f657 8632 57d8 2833 e12a 3332 1411 a732
000001e0: 6370 f432 f981 1a32 2796 bb31 6af0 8a32
000001f0: 794e 9e32 5c42 1932 4351 3b32 693a f231
00000200: 64cc 9132 7e2c 6032 ea92 2e32 9602 8132
00000210: 1510 7132 4fdb 2c32 8005 9432 3f79 3b32
00000220: 1517 4b32 dfd9 4632 fe8c 1a32 75fd a132
00000230: d745 2233 d4e0 e531 d0bc 7032 c3ae de32
00000240: 8396 4432 342a 5832 66cd 4a32 a1b0 d332
00000250: 44fc 2b32 479b 9832 f2a4 5e32 9f0b 0232
00000260: 20c9 2332 f3bf 9932 680f 2c32 c3a8 8632
00000270: 9b8c 0233 6115 8d32 a294 3832 f38b cb31
00000280: 6f4f b932 8225 1d32 3e17 1e32 e766 8932
00000290: dba6 c831 d912 1132 b760 3e32 2032 f331
000002a0: e18b 6932 181c 3032 5f18 8a32 765c a532
000002b0: bf1e 6f32 33e6 2d32 77ea d432 6400 c432
000002c0: 7f94 5432 949a 7332 dc3b 6f32 7de6 b732
000002d0: cb38 1232 3b85 d131 ee0a 4b32 c0f3 c732
000002e0: 6244 5532 91fd 2532 d810 8032 5e29 a532
000002f0: a927 b432 70a4 5e32 c9ef 7732 6a78 2532
00000300: bae9 0e33 1399 bd33 5771 6333 a6c5 8433
00000310: 794c 1b33 307f 0133 3450 dd32 3468 aa33
00000320: ce47 4533 6f90 4233 6cef 8433 a51a 9133
00000330: c44f 8f33 a893 5233 a23c 7f33 facf 4f33
00000340: 859f 3933 0a58 4333 f84d 2333 d1a5 7633
00000350: c6b7 5a33 f3ac 6d33 d4a2 9433 65ca 8733
00000360: ee3c 5c33 7ce8 6433 fdef 5f33 c442 9f33
00000370: 2d62 5933 df2c 3033 5b6f 5d33 9383 7d33
00000380: d7c0 4c33 47a9 8133 aeb0 8133 a2d0 bd33
00000390: ea0a bb33 ece6 aa33 b7ec 5633 42d7 6e33
000003a0: 7b0b 6733 42f0 3633 3b03 7f33 1dca 3933
000003b0: 5cdd d133 8de8 8d33 4496 6533 4548 4833
000003c0: 9d77 9f33 8cdd 6333 ca05 9133 e1ee 8f33
000003d0: 4f6a 8733 928e a033 5d21 9633 0dc1 8433
000003e0: 58ef ac33 9912 c833 d313 9e33 7cbe 9d33
000003f0: 8748 ad33 6b52 a533 68da 9833 a509 8433

exp_avg f4 [128]
-2.5331397e-05 -8.705601e-06 -3.6082216e-05 -3.8679627e-05 -7.953365e-05 3.1009087e-05 1.7140921e-05 3.0458414e-05
9.1420756e-05 6.267925e-05 -2.4318406e-05 -7.702353e-06 1.9208199e-05 8.936788e-06 -0.00014358318 5.8434172e-05
5.0513054e-06 6.172247e-05 9.446712e-05 0.000117921176 -0.00012888339 6.34701e-05 -5.4721966e-07 -1.3707903e-05
-1.3971368e-05 -7.1341725e-05 -2.751143e-05 -8.659574e-05 -5.44492e-05 7.66218e-05 -1.8937935e-05 2.9164006e-05
3.921604e-05 2.32473e-05 8.678501e-05 8.216962e-05 -5.3476328e-05 5.5243087e-05 -1.8332532e-05 -5.123678e-06
8.321188e-05 7.051816e-05 9.9090495e-05 0.00014509156 -3.828761e-06 4.8662703e-05 6.290854e-05 -7.321414e-05
-1.1501751e-05 2.7966962e-05 5.7285037e-05 -4.593988e-05 1.8250116e-06 0.00010037551 0.00011763297 -3.3792436e-05
-4.7481833e-05 -3.6845468e-05 4.7477524e-06 6.628718e-05 9.890824e-05 0.00019944395 -3.448325e-05 5.1307426e-05
7.745266e-05 0.00010252744 1.3685424e-07 -1.1600838e-06 -4.120717e-05 -4.444418e-05 1.5413196e-05 -4.6395206e-05
-1.964647e-05 0.00015034997 -2.1834176e-05 8.999136e-05 3.6891936e-06 -9.05931e-05 -2.1259775e-05 -7.617204e-05
-1.9671561e-05 -8.566235e-05 9.673738e-05 -3.006023e-05 0.00013810168 -0.00017073518 -2.6639723e-06 -7.6855045e-05
-4.3481137e-05 -3.280206e-06 8.942964e-05 -8.863577e-05 1.8513694e-05 5.104649e-05 -1.7433578e-05 -3.6111098e-05
-1.1079732e-06 6.9654256e-05 1.3807009e-05 2.0057483e-05 -8.119113e-05 -0.0001560548 7.325657e-06 0.00010949234
-9.2795584e-05 4.0438237e-05 -0.000109293534 0.00016537851 -9.608108e-05 4.316689e-05 9.985151e-05 3.726201e-07
1.555056e-05 2.855809e-05 0.0003031812 8.7816756e-05 5.4152206e-05 -2.108608e-05 8.924449e-05 -6.9972625e-06
8.9121684e-05 2.7237863e-06 -2.5141768e-05 -1.2752473e-05 4.9702805e-05 -5.7953827e-07 -2.9491252e-05 -3.7196183e-05
00000000: c37e d4b7 460e 12b7 fc56 17b8 ef3b 22b8
00000010: 4ecb a6b8 c10f 0238 d9c9 8f37 f280 ff37
00000020: 25b9 bf38 ab72 8338 61ff cbb7 5b39 01b7
00000030: 4b21 a137 36ef 1537 d18e 16b9 3717 7538
00000040: 627e a936 0071 8138 a61c c638 734c f738
00000050: df24 07b9 401b 8538 a6e4 12b5 fffa 65b7
00000060: 9266 6ab7 4c9d 95b8 59c8 e6b7 bc9a b5b8
00000070: 6260 64b8 04b0 a038 e8dc 9eb7 3aa5 f437
00000080: e77b 2438 3203 c337 5900 b638 7b52 ac38
00000090: c54b 60b8 d0b4 6738 d0c8 99b7 0fec abb6
000000a0: 0a82 ae38 26e3 9338 cece cf38 b823 1839
000000b0: ce78 80b6 2e1b 4c38 c4ed 8338 8b8a 99b8
000000c0: a5f7 40b7 989a ea37 5745 7038 92af 40b8
000000d0: ecf2 f435 b180 d238 b8b1 f638 5abc 0db8
000000e0: 3b27 47b8 858a 1ab8 e24e 9f36 a903 8b38
000000f0: f56c cf38 d421 5139 1ca2 10b8 ee32 5738
00000100: 156e a238 0004 d738 35f2 1234 2db4 9bb5
00000110: ddd5 2cb8 9369 3ab8 964b 8137 7998 42b8
00000120: 79ce a4b7 43a7 1d39 8928 b7b7 beb9 bc38
00000130: dd93 7736 cdfc bdb8 0557 b2b7 8dbe 9fb8
00000140: 5b04 a5b7 a0a5 b3b8 7cdf ca38 da29 fcb7
00000150: 63cf 1039 6007 33b9 b2c6 32b6 3d2d a1b8
00000160: 845f 36b8 8321 5cb6 2c8c bb38 f7e1 b9b8
00000170: db4d 9b37 c01a 5638 533e 92b7 ff75 17b8
00000180: abb5 94b5 5813 9238 a7a4 6737 1e41 a837
00000190: 2845 aab8 a4a2 23b9 eace f536 419f e538
000001a0: 409b c2b8 3a9c 2938 8534 e5b8 7569 2d39
000001b0: 237f c9b8 180e 3538 5f67 d138 840c c834
000001c0: 9372 8237 0890 ef37 4bf4 9e39 432a b838
000001d0: 7d21 6338 03e2 b0b7 c528 bb38 07ca eab6
000001e0: d7e6 ba38 4bca 3636 89e7 d2b7 74f3 55b7
000001f0: fb77 5038 9191 1bb5 fb63 f7b7 1903 1cb8

exp_avg_sq f4 [128]
8.6101e-08 6.789729e-08 9.1019864e-08 1.01418934e-07 1.2385912e-07 9.219494e-08 9.922959e-08 9.057838e-08
9.855081e-08 1.0348974e-07 1.4583674e-07 1.255768e-07 8.95368e-08 8.111899e-08 8.963677e-08 1.0719824e-07
1.249373e-07 1.3317427e-07 6.221293e-08 8.9529514e-08 7.133765e-08 7.731217e-08 2.511921e-11 1.1321676e-07
9.7130076e-08 6.218849e-08 6.2732724e-08 8.790683e-08 6.0426274e-08 7.086719e-08 5.079606e-08 9.291059e-08
1.1155149e-07 1.0467711e-07 8.184709e-08 1.1667876e-07 8.15003e-08 7.367902e-08 1.2363093e-07 7.560332e-08
9.5292606e-08 7.550187e-08 9.425603e-08 1.068861e-07 9.171823e-08 7.06892e-08 7.019364e-08 9.7359894e-08
7.709125e-08 1.05512264e-07 1.01798506e-07 1.5743258e-07 1.0044116e-07 8.0899596e-08 1.0704416e-07 9.374161e-08
8.302961e-08 8.627675e-08 7.7627526e-08 1.1860451e-07 1.12183336e-07 1.1755691e-07 7.81092e-08 1.17095674e-07
1.02386906e-07 1.0109788e-07 2.508371e-11 1.2334958e-07 1.0545549e-07 8.1455696e-08 1.0595411e-07 1.0616994e-07
4.0794408e-08 1.4587161e-07 1.2919257e-07 1.0067056e-07 1.3360372e-07 8.3129464e-08 9.452428e-08 1.1079425e-07
9.55856e-08 9.314365e-08 7.525295e-08 7.349314e-08 1.0820673e-07 8.695543e-08 1.17950286e-07 1.05898444e-07
9.88409e-08 6.858286e-08 8.171019e-08 7.363246e-08 8.3255216e-08 1.1446635e-07 9.083801e-08 3.3107902e-08
1.1580563e-07 7.73985e-08 1.03545894e-07 1.0187816e-07 1.3286427e-07 1.1309918e-07 1.0244372e-07 8.9397524e-08
1.1417046e-07 1.06038755e-07 1.0342004e-07 7.463089e-08 1.088817e-07 1.1585934e-07 7.6512045e-08 2.5153607e-11
1.0251644e-07 8.7385295e-08 1.2779024e-07 1.13553206e-07 8.2342474e-08 2.9794233e-08 1.0654118e-07 1.2110092e-07
9.857272e-08 8.307273e-08 9.173215e-08 1.0088561e-07 7.651299e-08 2.5057185e-11 5.4734983e-08 1.02229244e-07
00000000: 86e6 b833 eece 9133 b376 c333 a6cb d933
00000010: 23fe 0434 b4fc c533 0b18 d533 fe83 c233
00000020: e1a2 d333 163e de33 4c97 1c34 4ad6 0634
00000030: 6047 c033 a333 ae33 567e c033 db34 e633
00000040: 8126 0634 aafe 0e34 ec99 8533 5f43 c033
00000050: 4a32 9933 d106 a633 6ff3 dc2d 9221 f333
00000060: d395 d033 7c8c 8533 aeb7 8633 4ac7 bc33
00000070: b2c3 8133 a62f 9833 dc2a 5a33 2386 c733
00000080: 158e ef33 daca e033 eac3 af33 d490 fa33
00000090: 4405 af33 7839 9e33 69bf 0434 5d5b a233
000000a0: aaa3 cc33 9823 a233 cd69 ca33 4189 e533
000000b0: a1f6 c433 cccd 9733 5dbd 9633 2b14 d133
000000c0: 5d8d a533 fb95 e233 529c da33 bd0a 2934
000000d0: 1db2 d733 06bb ad33 26e0 e533 ff4e c933
000000e0: 034e b233 2547 b933 2fb4 a633 85b3 fe33
000000f0: 71e9 f033 9873 fc33 fdbc a733 0776 fb33
00000100: ccdf db33 261b d933 7ea3 dc2d 1372 0434
00000110: c576 e233 beec ae33 e388 e333 8bff e333
00000120: ed35 2f33 e2a0 1c34 2fb8 0a34 3a30 d833
00000130: b674 0f34 e884 b233 46fd ca33 c8ed ed33
00000140: bd44 cd33 4306 c833 bf9a a133 48d3 9d33
00000150: 475f e833 41bc ba33 db4b fd33 496a e333
00000160: 5c42 d433 d347 9333 a778 af33 df1f 9e33
00000170: 0aca b233 8bd0 f533 b912 c333 8632 0e33
00000180: d2b0 f833 4636 a633 f55c de33 1cc8 da33
00000190: 74a9 0e34 efe0 f233 08ff db33 cffa bf33
000001a0: e02d f533 6cb7 e333 c517 de33 c444 a033
000001b0: 59d2 e933 59ce f833 f14e a433 e340 dd2d
000001c0: 0227 dc33 93a8 bb33 b736 0934 89da f333
000001d0: 41d4 b033 36ee ff32 a2cb e433 f807 0234
000001e0: edae d333 b765 b233 48fe c433 73a6 d833
000001f0: 764f a433 c467 dc2d c015 6b33 1f89 db33

exp_avg f4 [16, 128]
5.170977e-06 -2.7294693e-06 1.5718491e-06 -4.3196792e-07 -1.3266589e-06 -3.2972537e-06 -2.6457317e-06 -4.0009684e-07
-7.2871217e-06 -1.3221795e-05 -8.838901e-07 1.506532e-06 1.8262389e-06 -6.2034987e-06 -8.434424e-06 7.4977385e-07
-9.2163907e-07 -2.3668263e-05 -1.5124611e-05 -1.8389837e-05 -1.319655e-05 -1.8896471e-06 3.4088265e-07 -3.7945804e-06
1.9232696e-06 -9.9029285e-06 -1.7719443e-05 -6.9549733e-06 -1.1243785e-05 -1.3231835e-05 3.6053332e-06 7.5865074e-07
1.4271666e-07 -5.04524e-06 -1.1622546e-05 -2.7593433e-05 -1.3923002e-05 -4.6275118e-06 -7.023234e-06 -7.6056685e-06
6.5997233e-06 -7.8094345e-06 -1.8399577e-06 -7.6164874e-06 -2.6901457e-06 -1.3078049e-05 -7.2000107e-06 1.4658683e-05
9.2299665e-08 -2.9817227e-06 4.2846436e-06 -7.441393e-07 1.3738253e-07 -7.388304e-06 -3.6919967e-06 2.3428381e-06
-2.3167737e-05 -1.0906777e-05 -1.4595905e-06 -8.282218e-06 -3.6713923e-06 -1.3480683e-05 6.566473e-07 9.652896e-07
-3.0972803e-06 -4.449245e-06 -8.545556e-07 -1.2287924e-06 -8.659886e-06 1.0247128e-05 3.41976e-05 -4.100168e-06
-1.9545343e-05 -8.339656e-06 1.1082901e-05 -1.3742219e-05 8.079195e-07 -3.3319714e-06 -1.3933787e-05 -8.200214e-06
3.3501224e-06 2.62517e-06 -1.0711061e-05 7.4288787e-06 -6.300543e-06 -1.30219305e-05 -5.2088836e-08 -1.5701498e-05
-3.7010448e-06 3.9206793e-06 -4.5337397e-06 1.4129513e-06 3.4820703e-06 -2.0564461e-05 -9.935468e-06 -3.1042313e-05
-2.4801575e-06 -4.1804597e-06 -1.649855e-05 -2.1045669e-06 -9.907249e-06 -5.3618123e-06 -1.5585236e-05 -1.7638105e-05
-3.8331873e-06 1.0641124e-06 -5.665888e-06 -7.3940487e-06 6.725775e-06 -7.184146e-06 -4.6485534e-06 -1.6985805e-07
-1.4920725e-05 1.1959455e-06 -1.9907264e-05 4.67957e-06 -5.9491083e-07 -5.21196e-05 -1.8947821e-06 3.4038726e-06
-1.5693535e-06 6.9182597e-06 -2.9798257e-06 -8.081237e-06 1.3276931e-05 3.9305766e-07 -9.98177e-06 -1.0395918e-05
1.9954728e-06 -1.3131816e-05 -3.2631317e-06 -1.4935953e-05 -2.884347e-06 -2.9557536e-06 1.7245878e-06 -3.0976391e-06
9.333634e-06 -5.836115e-06 2.598707e-06 -4.012621e-06 2.967327e-06 -3.2776143e-06 -1.5811596e-05 4.8677084e-06
7.1940613e-06 3.467037e-06 -6.9146377e-06 -9.8348555e-06 -1.9374074e-05 -1.3665593e-05 -4.4807828e-07 1.5479335e-06
9.36814e-06 -2.0414616e-06 -1.853041e-05 -1.1183769e-05 -1.6126885e-06 -3.60626e-06 2.3453353e-05 -3.0729914e-06
6.8233094e-06 -6.757681e-06 9.810361e-06 3.9891156e-06 8.464544e-06 1.3842517e-05 -1.8056793e-05 1.6461721e-06
-3.3438891e-06 1.26319255e-05 6.1348583e-06 -6.0332104e-06 8.771516e-06 -7.883889e-06 1.37352245e-05 3.6033766e-06
-3.0362276e-06 -6.665975e-06 1.9450088e-05 5.2337623e-06 6.3459706e-06 -3.4608615e-06 -1.248858e-05 4.8038573e-06
-1.7938675e-05 6.3293687e-06 -1.1232861e-06 -1.1605231e-05 -2.6236887e-06 -5.2268933e-06 -6.0104107e-06 3.6696445e-06
-2.626093e-06 -1.1620038e-07 -4.7077882e-07 -2.27732e-05 1.05622385e-05 1.5880978e-05 3.6955415e-05 -5.5639766e-06
-1.585586e-05 -1.8197743e-05 5.913147e-06 -3.824858e-06 -1.8927707e-05 1.1245403e-05 4.3550476e-06 7.0090928e-06
2.3017528e-05 5.704943e-06 7.842844e-06 2.1754233e-05 3.3743859e-06 3.4459056e-06 -2.2686197e-06 1.8156783e-05
-1.8402572e-05 -3.5090952e-06 -3.192901e-05 1.271446e-05 6.533403e-06 -2.6413647e-05 4.8231814e-06 1.4850962e-08
1.1874273e-05 7.2414405e-06 -1.6765813e-05 -1.7089204e-05 -1.7719747e-05 -1.3180932e-05 -9.338643e-07 -1.0097325e-05
-7.814235e-06 -1.4909444e-06 -7.292151e-06 -4.293712e-06 5.375102e-06 7.5081953e-06 -8.24704e-06 4.0741466e-07
-8.568706e-06 1.5351967e-05 -1.7719281e-05 1.13128735e-05 4.0644204e-06 -1.2283247e-05 -1.0835157e-05 -1.8450596e-06
3.4264601e-06 -3.474405e-06 -1.434304e-06 -7.75004e-06 1.6111448e-05 6.2215634e-07 1.8547573e-06 1.3091394e-05
00000000: 5b82 ad36 ed2b 37b6 53f8 d235 38e9 e7b4
00000010: a70f b2b5 6346 5db6 538d 31b6 e4cc d6b4
00000020: e683 f4b6 2dd3 5db7 7744 6db5 0c34 ca35
00000030: 171d f535 a627 d0b6 9381 0db7 1144 4935
00000040: 8e66 77b5 358b c6b7 b6bf 7db7 e043 9ab7
00000050: c066 5db7 c89f fdb5 8e02 b734 65a6 7eb6
00000060: 8511 0136 c124 26b7 37a4 94b7 c45e e9b6
00000070: b0a3 3cb7 4cfe 5db7 27f3 7136 15a6 4b35
00000080: a83d 1934 484a a9b6 74fe 42b7 7278 e7b7
00000090: d796 69b7 0646 9bb6 1fa9 ebb6 3234 ffb6
000000a0: 3173 dd36 4405 03b7 77f4 f6b5 2191 ffb6
000000b0: 5a88 34b6 cb69 5bb7 9f97 f1b6 90ee 7537
000000c0: 4736 c633 9b19 48b6 cfc4 8f36 ddc0 47b5
000000d0: 6c83 1334 0ce9 f7b6 05c4 77b6 a739 1d36
000000e0: 5658 c2b7 40fc 36b7 26e7 c3b5 dbf3 0ab7
000000f0: 0a62 76b6 182b 62b7 7544 3035 198f 8135
00000100: dfda 4fb6 b94a 95b6 9d64 65b5 fcec a4b5
00000110: ed49 11b7 14eb 2b37 656f 0f38 2d94 89b6
00000120: 4ef5 a3b7 8dea 0bb7 b3f0 3937 628e 66b7
00000130: cedf 5835 d59a 5fb6 29c5 69b7 a793 09b7
00000140: aad2 6036 142c 3036 a8b3 33b7 9545 f936
00000150: 4169 d3b6 c478 5ab7 48b8 5fb3 b6b6 83b7
00000160: 775f 78b6 618e 8336 8720 98b6 a3a4 bd35
00000170: 83ad 6936 d881 acb7 83b0 26b7 6e33 02b8
00000180: c870 26b6 e045 8cb6 5e66 8ab7 2f3c 0db6
00000190: 4f37 26b7 9ee9 b3b6 0abd 82b7 8bf5 93b7
000001a0: d49e 80b6 a0d2 8e35 9b1d beb6 651a f8b6
000001b0: f8ad e136 580f f1b6 c5fa 9bb6 3a62 36b4
000001c0: 0754 7ab7 6084 a035 86fe a6b7 3305 9d36
000001d0: f6b1 1fb5 ff9a 5ab8 3850 feb5 166e 6436
000001e0: 93a2 d2b5 6623 e836 04f9 47b6 a694 07b7
000001f0: fcbf 5e37 6f05 d334 6077 27b7 216a 2eb7
00000200: f6e9 0536 b850 5cb7 2dfc 5ab6 6e95 7ab7
00000210: b490 41b6 765b 46b6 6378 e735 09e1 4fb6
00000220: a797 1c37 d9d3 c3b6 7265 2e36 27a4 86b6
00000230: 4a22 4736 fcf4 5bb6 25a3 84b7 4c55 a336
00000240: 8464 f136 3eab 6836 4904 e8b6 6200 25b7
00000250: 8285 a2b7 4645 65b7 698f f0b4 97c2 cf35
00000260: db2b 1d37 0b00 09b6 c171 9bb7 eca1 3bb7
00000270: 8e73 d8b5 1303 72b6 b1bd c437 9739 4eb6
00000280: c8f3 e436 0ac0 e2b6 2e97 2437 3eda 8536
00000290: f102 0e37 283d 6837 ab78 97b7 0bf2 dc35
000002a0: 9467 60b6 b5ed 5337 08da cd36 e270 cab6
000002b0: 6029 1337 0c45 04b7 5770 6637 8ad1 7136
000002c0: fec1 4bb6 4aac dfb6 bf28 a337 ad9d af36
000002d0: 79ef d436 2641 68b6 0b86 51b7 d230 a136
000002e0: 037b 96b7 dd60 d436 d1c3 96b5 16b4 42b7
000002f0: a112 30b6 ac62 afb6 09ad c9b6 0344 7636
00000300: ef3b 30b6 d689 f9b3 59bf fcb4 1309 bfb7
00000310: 7834 3137 2438 8537 9300 1b38 32b2 bab6
00000320: 3302 85b7 5ba7 98b7 8c69 c636 4857 80b6
00000330: f1c6 9eb7 a3aa 3c37 9321 9236 a62f eb36
00000340: c415 c137 166d bf36 c294 0337 dc7c b637
00000350: 8273 6236 3540 6736 973e 18b6 654f 9837
00000360: 395f 9ab7 cc7d 6bb6 83eb 05b8 3150 5537
00000370: 8139 db36 e092 ddb7 d0d6 a136 3923 7f32
00000380: 9d37 4737 80fb f236 4fa4 8cb7 c95a 8fb7
00000390: dea4 94b7 ac23 5db7 abae 7ab5 ae67 29b7
000003a0: e219 03b7 761c c8b5 1aaf f4b6 b512 90b6
000003b0: c65b b436 e8ee fb36 c45c 0ab7 a5ba da34
000003c0: 50c2 0fb7 19c8 8037 dea3 94b7 6ccc 3d37
000003d0: 1b61 8836 2514 4eb7 a5c8 35b7 c4a3 f7b5
000003e0: 23f2 6536 d329 69b6 4f82 c0b5 2b06 02b7
000003f0: 1227 8737 4202 2735 faf0 f835 1ca3 5b37
